output/face_landmark.tflite (tflite, 301680 bytes, 28 tensors)

MobilenetV1/Conv2d_0/weights/read i1 [1, 3, 3, 8]
000000 1d 84 7f 81 96 05 1d 7f 37 9a 74 97 9d 48 2e 7d
       29 -124 127 -127 -106 5 29 127 55 -102 116 -105 -99 72 46 125
000010 ee 90 77 0c b1 69 36 75 51 85 75 b1 1b 1e 58 68
       -18 -112 119 12 -79 105 54 117 81 -123 117 -79 27 30 88 104
000020 7f 8c 11 a8 92 55 47 5f ff 88 3c 9f a6 7f 02 5b
       127 -116 17 -88 -110 85 71 95 -1 -120 60 -97 -90 127 2 91
000030 35 81 f5 35 c2 0b 79 5f ff 83 ac d1 81 3b 7f 65
       53 -127 -11 53 -62 11 121 95 -1 -125 -84 -47 -127 59 127 101
000040 eb 83 f1 b2 83 76 39 61
       -21 -125 -15 -78 -125 118 57 97

MobilenetV1/Conv2d_10_depthwise/depthwise_weights/read i1 [1, 3, 3, 128]
000000 76 b9 11 18 c8 81 7a f9 36 58 d3 59 f1 7f 4b 3d
       118 -71 17 24 -56 -127 122 -7 54 88 -45 89 -15 127 75 61
000010 c9 f8 de 4f 87 94 30 11 99 db d2 81 98 81 c7 cd
       -55 -8 -34 79 -121 -108 48 17 -103 -37 -46 -127 -104 -127 -57 -51
000020 aa d3 81 91 7f c2 21 7f 07 c6 d2 44 a2 f2 04 81
       -86 -45 -127 -111 127 -62 33 127 7 -58 -46 68 -94 -14 4 -127
000030 d1 c8 e1 7f b8 9d 0f cd 9d 87 7c 57 bb 7f 25 90
       -47 -56 -31 127 -72 -99 15 -51 -99 -121 124 87 -69 127 37 -112
000040 51 d5 d4 37 d2 63 8d 63 1b e6 f5 c7 55 7f 13 81
       81 -43 -44 55 -46 99 -115 99 27 -26 -11 -57 85 127 19 -127
000050 01 7f 81 81 b8 81 7f 7f ed 42 bd 95 d8 1a b7 18
       1 127 -127 -127 -72 -127 127 127 -19 66 -67 -107 -40 26 -73 24
000060 b2 eb f2 33 3c a1 d7 f0 7f 15 81 ab 39 7f 69 81
       -78 -21 -14 51 60 -95 -41 -16 127 21 -127 -85 57 127 105 -127
000070 e9 fd 57 b9 81 49 eb 16 c2 af f2 7f 69 4e f7 d1
       -23 -3 87 -71 -127 73 -21 22 -62 -81 -14 127 105 78 -9 -47
000080 32 37 02 bf e8 1d 18 cd 2d 7a ae 55 d8 43 17 0c
       50 55 2 -65 -24 29 24 -51 45 122 -82 85 -40 67 23 12
000090 81 d1 10 38 b1 ad 27 06 c0 d6 d2 ae b6 bf 7f bb
       -127 -47 16 56 -79 -83 39 6 -64 -42 -46 -82 -74 -65 127 -69
0000a0 ab 60 a1 39 06 e2 50 52 12 86 9e 70 cd ad 82 20
       -85 96 -95 57 6 -30 80 82 18 -122 -98 112 -51 -83 -126 32
0000b0 d5 a2 ec 16 fe 89 e3 10 08 ab 7f 6f 90 63 2c 81
       -43 -94 -20 22 -2 -119 -29 16 8 -85 127 111 -112 99 44 -127
0000c0 b1 a3 81 5e dd ea c4 3e fa bb 9b 81 2a 0f 17 bf
       -79 -93 -127 94 -35 -22 -60 62 -6 -69 -101 -127 42 15 23 -65
0000d0 cb 45 0c e9 81 8d 51 18 9f d6 81 06 16 3f bc e6
       -53 69 12 -23 -127 -115 81 24 -97 -42 -127 6 22 63 -68 -26
0000e0 81 d1 2e 10 c6 96 d2 05 39 b8 f0 dc 32 33 77 b3
       -127 -47 46 16 -58 -106 -46 5 57 -72 -16 -36 50 51 119 -77
0000f0 ec bd 70 81 97 d3 98 e5 be ce db 2d 7f 45 e9 7f
       -20 -67 112 -127 -105 -45 -104 -27 -66 -50 -37 45 127 69 -23 127

MobilenetV1/Conv2d_10_pointwise/weights/read i1 [128, 1, 1, 128]
000000 e0 10 8e 19 33 e6 e5 2b d2 f3 34 02 d6 e0 f3 df
       -32 16 -114 25 51 -26 -27 43 -46 -13 52 2 -42 -32 -13 -33
000010 f4 40 27 12 02 0b ef d4 c0 0f 15 e4 13 21 dd fb
       -12 64 39 18 2 11 -17 -44 -64 15 21 -28 19 33 -35 -5
000020 5d c0 4d 08 cd 32 3d fe 09 bd 05 fc db b0 be e1
       93 -64 77 8 -51 50 61 -2 9 -67 5 -4 -37 -80 -66 -31
000030 0a db f0 31 fc 23 92 db 02 0f f1 f1 cf 15 03 f7
       10 -37 -16 49 -4 35 -110 -37 2 15 -15 -15 -49 21 3 -9
000040 f0 ed f1 de f7 fc f7 34 35 26 87 30 de 11 1d e4
       -16 -19 -15 -34 -9 -4 -9 52 53 38 -121 48 -34 17 29 -28
000050 1d f0 f6 e4 b1 22 3c d3 fd eb 2e 22 ac 81 f7 df
       29 -16 -10 -28 -79 34 60 -45 -3 -21 46 34 -84 -127 -9 -33
000060 56 9a 0a d5 b6 19 f6 0e e7 03 16 06 0c f3 eb 06
       86 -102 10 -43 -74 25 -10 14 -25 3 22 6 12 -13 -21 6
000070 d1 fe e4 ba dd f6 04 3e cd fe 07 db 6a e4 01 8f
       -47 -2 -28 -70 -35 -10 4 62 -51 -2 7 -37 106 -28 1 -113
000080 7f ea 32 27 08 0f fe e3 17 ca f4 0e 0d 0c 38 0d
       127 -22 50 39 8 15 -2 -29 23 -54 -12 14 13 12 56 13
000090 1e ce d4 14 fe 5f ef 37 4b 04 fd d7 02 df 0a f7
       30 -50 -44 20 -2 95 -17 55 75 4 -3 -41 2 -33 10 -9
0000a0 20 0b 00 62 14 e9 ce 13 21 e7 24 f7 4d 00 46 03
       32 11 0 98 20 -23 -50 19 33 -25 36 -9 77 0 70 3
0000b0 f3 35 ff 03 d4 d8 37 d0 06 e7 04 0b e6 fb fb 28
       -13 53 -1 3 -44 -40 55 -48 6 -25 4 11 -26 -5 -5 40
0000c0 13 f4 0b 0f 30 3a ed 17 27 07 30 e3 07 f2 ee f0
       19 -12 11 15 48 58 -19 23 39 7 48 -29 7 -14 -18 -16
0000d0 df 1b 09 22 14 ed 26 f0 05 07 0f 03 16 e3 e7 f4
       -33 27 9 34 20 -19 38 -16 5 7 15 3 22 -29 -25 -12
0000e0 e6 0a 0c 32 fa 70 18 f9 1e f7 e5 4f 1e 25 5b 0f
       -26 10 12 50 -6 112 24 -7 30 -9 -27 79 30 37 91 15
0000f0 f9 ec 11 e2 22 e5 03 d9 fe 08 27 10 e0 18 3b 2f
       -7 -20 17 -30 34 -27 3 -39 -2 8 39 16 -32 24 59 47

MobilenetV1/Conv2d_11_depthwise/depthwise_weights/read i1 [1, 3, 3, 128]
000000 b6 0c fe ff e1 d7 b1 5d c3 75 21 e7 53 62 9b 3a
       -74 12 -2 -1 -31 -41 -79 93 -61 117 33 -25 83 98 -101 58
000010 71 1d 49 f5 81 2f ce c9 45 7f 3b 6b c8 81 61 98
       113 29 73 -11 -127 47 -50 -55 69 127 59 107 -56 -127 97 -104
000020 00 0c 0f c0 ce 22 dc 81 81 a2 14 de 24 9c 3d 9a
       0 12 15 -64 -50 34 -36 -127 -127 -94 20 -34 36 -100 61 -102
000030 9e 7f 81 47 8a 98 7f c8 7f 7f eb 41 4a 81 f3 c0
       -98 127 -127 71 -118 -104 127 -56 127 127 -21 65 74 -127 -13 -64
000040 23 1d ef 13 f2 d5 27 37 7f a0 0c e2 e6 ae 81 83
       35 29 -17 19 -14 -43 39 55 127 -96 12 -30 -26 -82 -127 -125
000050 08 bd 0e 81 6b 7f 08 d2 81 9f b0 1e ee 7f e2 7f
       8 -67 14 -127 107 127 8 -46 -127 -97 -80 30 -18 127 -30 127
000060 7f e0 ff 72 de 1e f9 81 fb 89 e9 f6 cb 1f 9d b7
       127 -32 -1 114 -34 30 -7 -127 -5 -119 -23 -10 -53 31 -99 -73
000070 47 2c 3a f0 cf d7 7e 73 94 fe d0 d0 15 e9 26 7f
       71 44 58 -16 -49 -41 126 115 -108 -2 -48 -48 21 -23 38 127
000080 e1 5c c4 43 f0 d0 a2 e0 bd 30 81 6e 81 42 d2 65
       -31 92 -60 67 -16 -48 -94 -32 -67 48 -127 110 -127 66 -46 101
000090 47 5a 19 6b dd 7f 26 8e 7f 3a 22 07 81 9f 7f e3
       71 90 25 107 -35 127 38 -114 127 58 34 7 -127 -97 127 -29
0000a0 7f 7c 7f f8 9e 17 4f 9a ca e6 df d2 74 c1 d8 f3
       127 124 127 -8 -98 23 79 -102 -54 -26 -33 -46 116 -63 -40 -13
0000b0 81 54 a6 cf 9e b1 21 d1 2b 4e 1c ca 67 cc 1e c5
       -127 84 -90 -49 -98 -79 33 -47 43 78 28 -54 103 -52 30 -59
0000c0 f5 65 a8 76 23 a9 f7 7f 62 81 a9 81 d4 6b cf c2
       -11 101 -88 118 35 -87 -9 127 98 -127 -87 -127 -44 107 -49 -62
0000d0 1f d5 06 a7 0f 28 7f 1f d3 81 ed 7f ca 41 94 44
       31 -43 6 -89 15 40 127 31 -45 -127 -19 127 -54 65 -108 68
0000e0 44 7f e0 7f af 57 5a ea d9 d4 da d5 cd b6 81 81
       68 127 -32 127 -81 87 90 -22 -39 -44 -38 -43 -51 -74 -127 -127
0000f0 10 a8 2b 1f 7f 6c 16 7f c2 0c aa b5 b1 c6 02 61
       16 -88 43 31 127 108 22 127 -62 12 -86 -75 -79 -58 2 97

MobilenetV1/Conv2d_11_pointwise/weights/read i1 [128, 1, 1, 128]
000000 d6 3c ff 15 37 e9 fd ec e6 39 06 d9 09 2a 1b f0
       -42 60 -1 21 55 -23 -3 -20 -26 57 6 -39 9 42 27 -16
000010 cf 20 06 0b f8 ed fd de dd 0e 44 1c df d9 7f fe
       -49 32 6 11 -8 -19 -3 -34 -35 14 68 28 -33 -39 127 -2
000020 fc 08 f4 ef f5 ea f8 eb 0e 5d 01 05 0b 11 f3 f4
       -4 8 -12 -17 -11 -22 -8 -21 14 93 1 5 11 17 -13 -12
000030 dc 02 01 e9 f1 07 28 29 28 f8 f1 21 1b d6 f9 12
       -36 2 1 -23 -15 7 40 41 40 -8 -15 33 27 -42 -7 18
000040 e4 22 f2 13 27 07 0d f7 d0 17 13 d0 1b 00 fb 2d
       -28 34 -14 19 39 7 13 -9 -48 23 19 -48 27 0 -5 45
000050 04 0a df ff 30 cf e6 20 07 1a 51 fe bf 35 02 04
       4 10 -33 -1 48 -49 -26 32 7 26 81 -2 -65 53 2 4
000060 f5 26 ff f6 f1 0a 02 f7 f5 cc f6 d1 fa 0a 12 31
       -11 38 -1 -10 -15 10 2 -9 -11 -52 -10 -47 -6 10 18 49
000070 e4 f6 0b e6 cf da 5a e9 2f ec f6 4f e3 f4 f4 f6
       -28 -10 11 -26 -49 -38 90 -23 47 -20 -10 79 -29 -12 -12 -10
000080 11 5b 50 2a 03 ea 16 fe 12 1d 4a 22 23 79 60 0a
       17 91 80 42 3 -22 22 -2 18 29 74 34 35 121 96 10
000090 32 25 36 0a 59 31 02 f2 d9 14 31 56 02 f0 4d 4c
       50 37 54 10 89 49 2 -14 -39 20 49 86 2 -16 77 76
0000a0 58 e5 18 12 20 06 f4 05 a3 60 f9 01 9c 00 c8 f5
       88 -27 24 18 32 6 -12 5 -93 96 -7 1 -100 0 -56 -11
0000b0 02 12 28 5a 21 27 5d 03 7f 54 1e 05 78 f6 3b 0f
       2 18 40 90 33 39 93 3 127 84 30 5 120 -10 59 15
0000c0 05 79 29 70 55 36 ed 01 6c fe 3f ee dc 47 0b d7
       5 121 41 112 85 54 -19 1 108 -2 63 -18 -36 71 11 -41
0000d0 1f 10 1c fa 02 e3 01 eb f4 f8 7e fc 08 3e 49 16
       31 16 28 -6 2 -29 1 -21 -12 -8 126 -4 8 62 73 22
0000e0 14 57 5e 35 ff 3e 59 f9 e0 1d 25 2f ae f7 20 6b
       20 87 94 53 -1 62 89 -7 -32 29 37 47 -82 -9 32 107
0000f0 38 00 16 f5 04 02 5b f7 02 f3 fb df fb 1b f8 fd
       56 0 22 -11 4 2 91 -9 2 -13 -5 -33 -5 27 -8 -3

MobilenetV1/Conv2d_12_depthwise/depthwise_weights/read i1 [1, 3, 3, 128]
000000 7f 0f 81 f6 e1 4a 45 ce 21 ed 81 56 81 07 ed 52
       127 15 -127 -10 -31 74 69 -50 33 -19 -127 86 -127 7 -19 82
000010 d8 d2 6f 7f 18 1e eb 7f 31 a5 7f 94 c5 6b 7f e8
       -40 -46 111 127 24 30 -21 127 49 -91 127 -108 -59 107 127 -24
000020 39 81 a6 fa 7a a8 f0 7f 4a e4 0b fc 06 bc aa c8
       57 -127 -90 -6 122 -88 -16 127 74 -28 11 -4 6 -68 -86 -56
000030 02 7f 81 fb 20 fb a4 7f de 19 38 13 09 27 18 7f
       2 127 -127 -5 32 -5 -92 127 -34 25 56 19 9 39 24 127
000040 3e fa 06 f3 7f e8 ef 62 98 77 21 42 6e 1b 29 8f
       62 -6 6 -13 127 -24 -17 98 -104 119 33 66 110 27 41 -113
000050 e8 8b c8 e4 37 7c 38 38 dd 21 99 78 53 8d c5 4d
       -24 -117 -56 -28 55 124 56 56 -35 33 -103 120 83 -115 -59 77
000060 d8 2c 4f 05 ec 7f 00 cf 35 d7 90 67 14 3a 81 b6
       -40 44 79 5 -20 127 0 -49 53 -41 -112 103 20 58 -127 -74
000070 44 11 d1 7f 2a c1 40 7f 52 b3 a8 1c 05 e1 f8 fa
       68 17 -47 127 42 -63 64 127 82 -77 -88 28 5 -31 -8 -6
000080 3f d0 cd cc bc 20 56 ef 7f 73 9d 5b ed f9 c4 f7
       63 -48 -51 -52 -68 32 86 -17 127 115 -99 91 -19 -7 -60 -9
000090 de 81 7f 0a f2 fa f1 33 51 11 6a d4 f0 48 71 67
       -34 -127 127 10 -14 -6 -15 51 81 17 106 -44 -16 72 113 103
0000a0 d4 d2 d7 11 46 81 12 3f ea 28 7f 82 e8 b6 a7 d0
       -44 -46 -41 17 70 -127 18 63 -22 40 127 -126 -24 -74 -89 -48
0000b0 ff 38 92 c9 07 37 81 e1 7f 65 7f 39 25 13 7f 62
       -1 56 -110 -55 7 55 -127 -31 127 101 127 57 37 19 127 98
0000c0 07 1a fe 57 63 f9 f2 fd c0 f7 4a c2 17 41 f1 ab
       7 26 -2 87 99 -7 -14 -3 -64 -9 74 -62 23 65 -15 -85
0000d0 70 40 f7 26 db 7f 02 d8 52 ed e7 08 7f 81 92 62
       112 64 -9 38 -37 127 2 -40 82 -19 -25 8 127 -127 -110 98
0000e0 86 14 f3 fe 0a 3f 24 0c f6 e7 97 fe 01 09 be cc
       -122 20 -13 -2 10 63 36 12 -10 -25 -105 -2 1 9 -66 -52
0000f0 8e a1 11 10 7f f1 7a 09 2c 47 c2 3f 7f f5 14 24
       -114 -95 17 16 127 -15 122 9 44 71 -62 63 127 -11 20 36

MobilenetV1/Conv2d_12_pointwise/weights/read i1 [256, 1, 1, 128]
000000 1d 17 e6 f8 10 12 32 12 33 d9 35 07 07 00 18 1d
       29 23 -26 -8 16 18 50 18 51 -39 53 7 7 0 24 29
000010 f5 26 02 57 12 0b 12 04 fb 07 e7 09 f1 18 ff 7f
       -11 38 2 87 18 11 18 4 -5 7 -25 9 -15 24 -1 127
000020 0a cf 52 24 05 ff 22 e5 0b 04 2c 05 ad ff 15 01
       10 -49 82 36 5 -1 34 -27 11 4 44 5 -83 -1 21 1
000030 07 0a b8 0c 19 09 20 ff ce 13 0f 37 39 0f 01 1b
       7 10 -72 12 25 9 32 -1 -50 19 15 55 57 15 1 27
000040 0a fc fa ff 07 3e fd fc a3 0a d1 f2 16 13 0d 0e
       10 -4 -6 -1 7 62 -3 -4 -93 10 -47 -14 22 19 13 14
000050 12 ff 2d ff 00 fc 02 02 f6 0e 57 11 1b f5 e1 09
       18 -1 45 -1 0 -4 2 2 -10 14 87 17 27 -11 -31 9
000060 ca 0c 01 09 2b fd 16 fd 09 fd 2e 06 3c 3f b6 31
       -54 12 1 9 43 -3 22 -3 9 -3 46 6 60 63 -74 49
000070 7d bd bd 16 0c 2e 07 07 d2 59 d7 16 00 1d 43 06
       125 -67 -67 22 12 46 7 7 -46 89 -41 22 0 29 67 6
000080 0c 07 1f 24 dd fd f6 0a e4 21 fe fa 0c f7 12 00
       12 7 31 36 -35 -3 -10 10 -28 33 -2 -6 12 -9 18 0
000090 08 22 fe 13 fa 08 be fc 07 fa 46 31 0f f9 0a da
       8 34 -2 19 -6 8 -66 -4 7 -6 70 49 15 -7 10 -38
0000a0 ff 3d e2 10 07 02 fb 1f f8 0c ca ef 0f fb 04 f9
       -1 61 -30 16 7 2 -5 31 -8 12 -54 -17 15 -5 4 -7
0000b0 0d fc 3a b4 f0 0c 12 00 fd cb 03 31 28 fe fe 0b
       13 -4 58 -76 -16 12 18 0 -3 -53 3 49 40 -2 -2 11
0000c0 02 cd 04 12 bd da 1e f8 49 22 fc 13 fd 03 14 2b
       2 -51 4 18 -67 -38 30 -8 73 34 -4 19 -3 3 20 43
0000d0 02 f6 f1 26 03 1f 23 0a f6 06 35 05 00 19 d5 0c
       2 -10 -15 38 3 31 35 10 -10 6 53 5 0 25 -43 12
0000e0 3d 07 0f ee 22 01 b5 fc 01 23 02 10 e8 ec 16 f6
       61 7 15 -18 34 1 -75 -4 1 35 2 16 -24 -20 22 -10
0000f0 02 d3 7f 04 fe f4 00 07 07 f7 f8 01 05 02 15 af
       2 -45 127 4 -2 -12 0 7 7 -9 -8 1 5 2 21 -81

MobilenetV1/Conv2d_13_depthwise/depthwise_weights/read i1 [1, 3, 3, 256]
000000 36 81 fe 72 0d db d5 05 ed 13 10 02 b0 fa 23 06
       54 -127 -2 114 13 -37 -43 5 -19 19 16 2 -80 -6 35 6
000010 0f 03 07 1a 71 0c fd 02 0a 12 0d fc dd 3b 69 dc
       15 3 7 26 113 12 -3 2 10 18 13 -4 -35 59 105 -36
000020 09 9b 5e 19 f7 1a 7f c6 11 20 5e ea d0 0f 01 16
       9 -101 94 25 -9 26 127 -58 17 32 94 -22 -48 15 1 22
000030 27 08 a5 20 cb f4 be 7f 3c f9 47 ea 29 1e c2 f3
       39 8 -91 32 -53 -12 -66 127 60 -7 71 -22 41 30 -62 -13
000040 f5 17 1e 52 f8 cc 14 0e 2b 08 86 48 2b c9 ad 08
       -11 23 30 82 -8 -52 20 14 43 8 -122 72 43 -55 -83 8
000050 f1 05 11 a3 21 38 fe 16 1e fc 89 25 f8 f3 1f a5
       -15 5 17 -93 33 56 -2 22 30 -4 -119 37 -8 -13 31 -91
000060 07 03 b6 0e 07 d7 e4 04 0e 7f 0b f2 23 d7 4c dd
       7 3 -74 14 7 -41 -28 4 14 127 11 -14 35 -41 76 -35
000070 c2 53 f3 b9 08 b2 ca 23 06 ff 18 2e 24 cb 4e 0a
       -62 83 -13 -71 8 -78 -54 35 6 -1 24 46 36 -53 78 10
000080 15 59 1b e9 68 09 40 e3 91 b5 04 03 31 dd 15 10
       21 89 27 -23 104 9 64 -29 -111 -75 4 3 49 -35 21 16
000090 21 f9 2a 04 01 d6 7e 2b 14 7f 7f f7 01 fa b6 05
       33 -7 42 4 1 -42 126 43 20 127 127 -9 1 -6 -74 5
0000a0 4f dc ed f6 53 18 00 f8 0b 11 f8 02 f0 0a e8 ee
       79 -36 -19 -10 83 24 0 -8 11 17 -8 2 -16 10 -24 -18
0000b0 e6 b8 14 f0 f5 f5 7e f2 ff 75 10 fa cd 63 0a 34
       -26 -72 20 -16 -11 -11 126 -14 -1 117 16 -6 -51 99 10 52
0000c0 88 81 7d 21 df d1 34 0e 8e 0e 36 59 60 24 04 66
       -120 -127 125 33 -33 -47 52 14 -114 14 54 89 96 36 4 102
0000d0 23 b8 57 03 2b ea 19 47 e2 0a 35 66 7f 1d c7 21
       35 -72 87 3 43 -22 25 71 -30 10 53 102 127 29 -57 33
0000e0 8e 9a 06 0c 1b c0 81 f5 23 20 e8 29 02 3b 22 26
       -114 -102 6 12 27 -64 -127 -11 35 32 -24 41 2 59 34 38
0000f0 5a ed f6 fd 05 e2 d2 34 81 e5 d1 eb 53 11 a8 19
       90 -19 -10 -3 5 -30 -46 52 -127 -27 -47 -21 83 17 -88 25

MobilenetV1/Conv2d_13_pointwise/weights/read i1 [256, 1, 1, 256]
000000 4b f1 df 1d 52 dc 39 46 0f 3d 3b 41 4b b0 12 4c
       75 -15 -33 29 82 -36 57 70 15 61 59 65 75 -80 18 76
000010 4d 0b 4e 70 e1 0d 3a 20 e3 f6 66 24 cf 20 fd 24
       77 11 78 112 -31 13 58 32 -29 -10 102 36 -49 32 -3 36
000020 33 eb 0d fc ce 6a 27 21 33 19 08 0b 03 24 0e 4c
       51 -21 13 -4 -50 106 39 33 51 25 8 11 3 36 14 76
000030 34 62 dc 4a 28 cf f1 f2 16 13 de 01 71 0c 25 df
       52 98 -36 74 40 -49 -15 -14 22 19 -34 1 113 12 37 -33
000040 12 1d d1 fa 48 e8 12 17 39 18 f5 08 3e 26 10 52
       18 29 -47 -6 72 -24 18 23 57 24 -11 8 62 38 16 82
000050 34 1e 17 08 f2 54 ef 46 0f db 14 4c 26 49 24 05
       52 30 23 8 -14 84 -17 70 15 -37 20 76 38 73 36 5
000060 24 fc f4 2c 60 14 26 4b ea 3d 40 19 22 ff 0c c0
       36 -4 -12 44 96 20 38 75 -22 61 64 25 34 -1 12 -64
000070 e6 3e 22 21 4c db e8 2a 64 fc 22 2b fc 11 19 52
       -26 62 34 33 76 -37 -24 42 100 -4 34 43 -4 17 25 82
000080 2a 53 9c 33 16 33 02 36 01 e5 2e f3 07 d9 35 1a
       42 83 -100 51 22 51 2 54 1 -27 46 -13 7 -39 53 26
000090 31 49 3f 50 64 eb 46 41 fe 03 28 30 3d f0 2b 0e
       49 73 63 80 100 -21 70 65 -2 3 40 48 61 -16 43 14
0000a0 c5 35 f6 81 d3 21 07 27 13 19 2c 08 27 45 4f 1d
       -59 53 -10 -127 -45 33 7 39 19 25 44 8 39 69 79 29
0000b0 de 34 f4 1c d4 47 d8 41 63 1a ff 4d 2d 06 47 32
       -34 52 -12 28 -44 71 -40 65 99 26 -1 77 45 6 71 50
0000c0 17 10 56 79 d6 2f 09 fa 26 de 57 f0 bf 20 5b ca
       23 16 86 121 -42 47 9 -6 38 -34 87 -16 -65 32 91 -54
0000d0 20 36 02 18 03 2a 12 20 d5 3c 30 e8 da 45 e8 4c
       32 54 2 24 3 42 18 32 -43 60 48 -24 -38 69 -24 76
0000e0 24 fd 0f f9 78 07 2a ea 40 56 42 ef ff 26 cd 72
       36 -3 15 -7 120 7 42 -22 64 86 66 -17 -1 38 -51 114
0000f0 e2 25 52 46 f2 fd 1f 15 11 22 03 0e 1a 14 1d f6
       -30 37 82 70 -14 -3 31 21 17 34 3 14 26 20 29 -10

MobilenetV1/Conv2d_1_depthwise/depthwise_weights/read i1 [1, 3, 3, 8]
000000 91 5e f8 4a e1 a7 81 16 fe 53 d1 71 c4 cc d7 06
       -111 94 -8 74 -31 -89 -127 22 -2 83 -47 113 -60 -52 -41 6
000010 f2 4c 3e 7f a3 f0 bf f6 91 64 02 4c 66 8c fc 00
       -14 76 62 127 -93 -16 -65 -10 -111 100 2 76 102 -116 -4 0
000020 25 5e fb 5d 52 81 21 78 37 58 17 5d a4 a7 c9 7f
       37 94 -5 93 82 -127 33 120 55 88 23 93 -92 -89 -55 127
000030 81 7f 05 19 77 b7 09 1c c8 5c 4d 46 7f 06 e6 58
       -127 127 5 25 119 -73 9 28 -56 92 77 70 127 6 -26 88
000040 0b 5e 7f 45 59 04 c4 67
       11 94 127 69 89 4 -60 103

MobilenetV1/Conv2d_1_pointwise/weights/read i1 [16, 1, 1, 8]
000000 71 20 81 d0 2b ab e4 dd a8 34 7f 49 31 d1 13 dc
       113 32 -127 -48 43 -85 -28 -35 -88 52 127 73 49 -47 19 -36
000010 6f 2b 7f fb 29 dd 19 ef 81 a5 a5 c8 9e 60 e5 bc
       111 43 127 -5 41 -35 25 -17 -127 -91 -91 -56 -98 96 -27 -68
000020 dd 2f b3 81 57 fc d9 c0 bc 8a e3 81 00 4a 5a fa
       -35 47 -77 -127 87 -4 -39 -64 -68 -118 -29 -127 0 74 90 -6
000030 81 39 39 f6 40 55 5b c4 7f 33 0c f6 32 de 0d 2e
       -127 57 57 -10 64 85 91 -60 127 51 12 -10 50 -34 13 46
000040 7f b7 57 f6 d0 ca c0 1a 81 65 0a ea 2b f2 01 b2
       127 -73 87 -10 -48 -54 -64 26 -127 101 10 -22 43 -14 1 -78
000050 5f 8e b0 06 a0 d6 b7 7f aa fc 04 5c 5a 81 87 84
       95 -114 -80 6 -96 -42 -73 127 -86 -4 4 92 90 -127 -121 -124
000060 81 02 ea df ac 05 f3 bc 7f 36 0e f6 38 e4 f2 c6
       -127 2 -22 -33 -84 5 -13 -68 127 54 14 -10 56 -28 -14 -58
000070 8b 7f c7 dd 63 23 fe e7 07 3d 7f 50 20 63 75 c9
       -117 127 -57 -35 99 35 -2 -25 7 61 127 80 32 99 117 -55

MobilenetV1/Conv2d_2_depthwise/depthwise_weights/read i1 [1, 3, 3, 16]
000000 f3 e0 f7 7e cb 01 05 91 fc 7b c2 09 56 81 7f e4
       -13 -32 -9 126 -53 1 5 -111 -4 123 -62 9 86 -127 127 -28
000010 d2 d1 c1 8a 21 c6 3c f6 cf 7f c3 78 f5 f8 e2 f6
       -46 -47 -63 -118 33 -58 60 -10 -49 127 -61 120 -11 -8 -30 -10
000020 e2 f6 df 51 be 3f 2f d5 b4 fa 15 7f 7f 03 ed c9
       -30 -10 -33 81 -66 63 47 -43 -76 -6 21 127 127 3 -19 -55
000030 c7 db e3 7e da 19 02 9e 31 01 8c 37 42 bc 67 08
       -57 -37 -29 126 -38 25 2 -98 49 1 -116 55 66 -68 103 8
000040 c2 ef 9f 7f 65 b9 0f 2c 0c 01 39 f6 26 e4 11 ee
       -62 -17 -97 127 101 -71 15 44 12 1 57 -10 38 -28 17 -18
000050 d3 f4 cb 76 d4 bc 22 81 e3 6b 4b 5b 1f 05 fb d4
       -45 -12 -53 118 -44 -68 34 -127 -29 107 75 91 31 5 -5 -44
000060 a2 b9 c1 39 cd 8d 7f cc 79 78 81 da 20 d3 dd c9
       -94 -71 -63 57 -51 -115 127 -52 121 120 -127 -38 32 -45 -35 -55
000070 ee 81 bc 43 b8 81 31 26 7f 5f 06 0c 14 ed af 94
       -18 -127 -68 67 -72 -127 49 38 127 95 6 12 20 -19 -81 -108
000080 81 e9 81 73 81 85 fe fb 01 4a df 2a ec e8 bd 81
       -127 -23 -127 115 -127 -123 -2 -5 1 74 -33 42 -20 -24 -67 -127

MobilenetV1/Conv2d_2_pointwise/weights/read i1 [32, 1, 1, 16]
000000 c8 81 d7 e0 09 0b 25 e8 2b fc e9 11 20 dc ef cd
       -56 -127 -41 -32 9 11 37 -24 43 -4 -23 17 32 -36 -17 -51
000010 17 7f c9 19 45 01 f4 4e f3 26 e3 fd d7 58 2b 42
       23 127 -55 25 69 1 -12 78 -13 38 -29 -3 -41 88 43 66
000020 b0 06 bb 28 bf 37 13 8a b4 7f 18 16 0d 38 dc 31
       -80 6 -69 40 -65 55 19 -118 -76 127 24 22 13 56 -36 49
000030 45 1a c5 e9 64 24 0c 5f 7f 34 da 0c ad 15 fc a9
       69 26 -59 -23 100 36 12 95 127 52 -38 12 -83 21 -4 -87
000040 64 de a1 d2 95 f5 fe a2 fc 81 c2 fc 73 67 e6 12
       100 -34 -95 -46 -107 -11 -2 -94 -4 -127 -62 -4 115 103 -26 18
000050 0c ab f4 cf d1 2b 55 6a 7f 10 22 0d fc 1e e9 fc
       12 -85 -12 -49 -47 43 85 106 127 16 34 13 -4 30 -23 -4
000060 5f 3b bf de 03 17 3d 51 03 0a eb 1a ec 7f da 9c
       95 59 -65 -34 3 23 61 81 3 10 -21 26 -20 127 -38 -100
000070 f7 f2 de ed d7 07 49 0d 04 16 dd 1a 0b 1e 7f 28
       -9 -14 -34 -19 -41 7 73 13 4 22 -35 26 11 30 127 40
000080 b4 81 93 dd ad 0f d0 a2 1f ca d7 d9 48 14 04 da
       -76 -127 -109 -35 -83 15 -48 -94 31 -54 -41 -39 72 20 4 -38
000090 91 60 0f 75 73 2c f1 63 a5 14 1d 13 7f c3 25 87
       -111 96 15 117 115 44 -15 99 -91 20 29 19 127 -61 37 -121
0000a0 81 29 50 08 33 fb 2c e2 c9 c8 e3 f2 d2 c5 e4 26
       -127 41 80 8 51 -5 44 -30 -55 -56 -29 -14 -46 -59 -28 38
0000b0 00 81 9e bb f4 f3 43 e0 39 55 f3 f2 15 49 52 09
       0 -127 -98 -69 -12 -13 67 -32 57 85 -13 -14 21 73 82 9
0000c0 bc 21 cd d8 01 e7 81 be 2f a9 36 a1 b6 b2 37 d6
       -68 33 -51 -40 1 -25 -127 -66 47 -87 54 -95 -74 -78 55 -42
0000d0 50 69 ce 2a 2a f1 48 ec 5b 20 d0 16 44 7f 61 df
       80 105 -50 42 42 -15 72 -20 91 32 -48 22 68 127 97 -33
0000e0 53 54 d3 1e 39 06 0a 7f 24 51 fa e5 08 4e d4 66
       83 84 -45 30 57 6 10 127 36 81 -6 -27 8 78 -44 102
0000f0 57 b2 25 ed e0 de 68 d9 0c bb f4 1a ca 7f b4 1d
       87 -78 37 -19 -32 -34 104 -39 12 -69 -12 26 -54 127 -76 29

MobilenetV1/Conv2d_3_depthwise/depthwise_weights/read i1 [1, 3, 3, 32]
000000 dc 40 8b cf 30 99 77 81 22 1b 10 73 3b f1 47 88
       -36 64 -117 -49 48 -103 119 -127 34 27 16 115 59 -15 71 -120
000010 6a c6 81 97 7f 19 de 39 d0 d2 1d 15 81 77 30 37
       106 -58 -127 -105 127 25 -34 57 -48 -46 29 21 -127 119 48 55
000020 ce 10 c0 d5 ac 90 4f bc fb 43 33 0b f9 ce 0a 31
       -50 16 -64 -43 -84 -112 79 -68 -5 67 51 11 -7 -50 10 49
000030 08 55 01 82 67 32 e8 21 1b e5 ef 7f 90 23 05 e4
       8 85 1 -126 103 50 -24 33 27 -27 -17 127 -112 35 5 -28
000040 a0 07 7f fb 9f b1 24 e5 42 7f e1 19 7f d7 d2 cc
       -96 7 127 -5 -97 -79 36 -27 66 127 -31 25 127 -41 -46 -52
000050 0f 7f b5 9a 19 e9 c7 0a 4e d0 ad 55 89 7f 0b 69
       15 127 -75 -102 25 -23 -57 10 78 -48 -83 85 -119 127 11 105
000060 81 37 45 81 db d9 7f 8f 73 cc 3e fd b7 d9 54 cb
       -127 55 69 -127 -37 -39 127 -113 115 -52 62 -3 -73 -39 84 -53
000070 81 d5 ac 01 5b 50 2c 5a 35 7f 1a 0a 94 58 27 56
       -127 -43 -84 1 91 80 44 90 53 127 26 10 -108 88 39 86
000080 8f 21 32 dd 8c 8a 30 9c 6e 4a 69 e5 bc e5 db 81
       -113 33 50 -35 -116 -118 48 -100 110 74 105 -27 -68 -27 -37 -127
000090 a5 2a a2 2c 27 26 fd 35 16 4b f4 65 83 4a fb 20
       -91 42 -94 44 39 38 -3 53 22 75 -12 101 -125 74 -5 32
0000a0 d1 f2 25 03 81 d7 2f d3 68 4c 17 e3 79 c4 e9 02
       -47 -14 37 3 -127 -41 47 -45 104 76 23 -29 121 -60 -23 2
0000b0 b1 7a c9 82 30 be 81 39 40 43 4f 4f b0 db 81 7f
       -79 122 -55 -126 48 -66 -127 57 64 67 79 79 -80 -37 -127 127
0000c0 b4 36 b1 9e 0f e2 7a 9e cc 6b 31 88 9a 62 7f 9e
       -76 54 -79 -98 15 -30 122 -98 -52 107 49 -120 -102 98 127 -98
0000d0 a3 60 87 81 c2 15 0a 7f 0c ed 7f e9 f5 5c 1e e1
       -93 96 -121 -127 -62 21 10 127 12 -19 127 -23 -11 92 30 -31
0000e0 b5 7f 41 ca 9e 81 37 96 11 7a 7f 81 ad 7f 0e 46
       -75 127 65 -54 -98 -127 55 -106 17 122 127 -127 -83 127 14 70
0000f0 ac 1a 42 31 c2 7f d3 4f 7f f0 19 6b 4e 9f 12 bf
       -84 26 66 49 -62 127 -45 79 127 -16 25 107 78 -97 18 -65

MobilenetV1/Conv2d_3_pointwise/weights/read i1 [32, 1, 1, 32]
000000 f6 f3 02 14 f2 43 c0 f2 e7 e0 60 25 ec 4a 68 1a
       -10 -13 2 20 -14 67 -64 -14 -25 -32 96 37 -20 74 104 26
000010 e1 f8 11 03 75 d6 1a 03 15 f4 ca 1b eb 0d fd 7f
       -31 -8 17 3 117 -42 26 3 21 -12 -54 27 -21 13 -3 127
000020 d2 dc 55 28 5f d3 e5 07 d3 fb 66 e1 ef fd 7a d7
       -46 -36 85 40 95 -45 -27 7 -45 -5 102 -31 -17 -3 122 -41
000030 21 f6 52 05 7f c1 09 e3 ea 1e 17 06 28 fe cf 44
       33 -10 82 5 127 -63 9 -29 -22 30 23 6 40 -2 -49 68
000040 32 81 b3 34 e7 d9 d1 02 2f ef 34 e5 ab 3e 8e 2d
       50 -127 -77 52 -25 -39 -47 2 47 -17 52 -27 -85 62 -114 45
000050 b8 61 c6 f7 ed fb d3 ae b8 cd a1 fe e0 f4 fa df
       -72 97 -58 -9 -19 -5 -45 -82 -72 -51 -95 -2 -32 -12 -6 -33
000060 5c 7f d6 ee f0 e9 f4 10 27 f0 f6 e8 f4 f6 f2 05
       92 127 -42 -18 -16 -23 -12 16 39 -16 -10 -24 -12 -10 -14 5
000070 ff 08 ce 21 eb c5 03 0b 0f 13 59 eb e3 1e 20 00
       -1 8 -50 33 -21 -59 3 11 15 19 89 -21 -29 30 32 0
000080 e6 b4 1d e6 02 10 32 fd f8 1e d3 de 16 1f 20 0d
       -26 -76 29 -26 2 16 50 -3 -8 30 -45 -34 22 31 32 13
000090 30 d2 06 00 e8 ae 81 0b 05 0f 07 d3 f0 21 09 ec
       48 -46 6 0 -24 -82 -127 11 5 15 7 -45 -16 33 9 -20
0000a0 7a 7f ee e4 e6 1c 34 2e 43 2e 22 e4 db cb 23 f0
       122 127 -18 -28 -26 28 52 46 67 46 34 -28 -37 -53 35 -16
0000b0 dd ff 03 eb c1 07 1b 0c fc e6 23 0c 13 12 1a db
       -35 -1 3 -21 -63 7 27 12 -4 -26 35 12 19 18 26 -37
0000c0 33 28 e5 17 11 d9 1c 1d ce 37 07 e5 f5 20 c0 05
       51 40 -27 23 17 -39 28 29 -50 55 7 -27 -11 32 -64 5
0000d0 e8 0b f6 ea 81 1e c7 0a 02 09 2c ec fb 1d 33 07
       -24 11 -10 -22 -127 30 -57 10 2 9 44 -20 -5 29 51 7
0000e0 13 7f ed f0 eb 00 e9 fd 16 0a e6 32 10 04 24 11
       19 127 -19 -16 -21 0 -23 -3 22 10 -26 50 16 4 36 17
0000f0 d3 c5 fc 00 1c c0 19 08 32 30 09 03 05 ea dc f6
       -45 -59 -4 0 28 -64 25 8 50 48 9 3 5 -22 -36 -10

MobilenetV1/Conv2d_4_depthwise/depthwise_weights/read i1 [1, 3, 3, 32]
000000 08 a2 ae 1c 85 3d c4 04 c6 13 51 59 f5 34 05 ff
       8 -94 -82 28 -123 61 -60 4 -58 19 81 89 -11 52 5 -1
000010 76 33 bf c0 4d 04 81 d6 e9 39 81 6e 59 f6 7f 24
       118 51 -65 -64 77 4 -127 -42 -23 57 -127 110 89 -10 127 36
000020 f9 e2 ff d3 95 04 a9 07 b7 28 3e 50 ad 81 29 d1
       -7 -30 -1 -45 -107 4 -87 7 -73 40 62 80 -83 -127 41 -47
000030 7f 6d 9d 89 7f c0 5c e7 3c f9 b1 9b 7f f5 18 ae
       127 109 -99 -119 127 -64 92 -25 60 -7 -79 -101 127 -11 24 -82
000040 0e c6 67 17 17 2d b5 e7 1a db 01 81 81 98 e8 1d
       14 -58 103 23 23 45 -75 -25 26 -37 1 -127 -127 -104 -24 29
000050 07 81 81 81 71 81 f3 af 4c 7f ad 9e 21 81 3f e7
       7 -127 -127 -127 113 -127 -13 -81 76 127 -83 -98 33 -127 63 -25
000060 4d f5 e0 13 8d 3b ca 67 81 fe 7f 22 ec e3 7f fa
       77 -11 -32 19 -115 59 -54 103 -127 -2 127 34 -20 -29 127 -6
000070 49 fb b0 8b 60 1a f8 e3 cb ad ae b9 55 f2 1c 5e
       73 -5 -80 -117 96 26 -8 -29 -53 -83 -82 -71 85 -14 28 94
000080 19 3f 81 e1 da 1b 81 b1 82 f8 e5 1e 1a ec 48 81
       25 63 -127 -31 -38 27 -127 -79 -126 -8 -27 30 26 -20 72 -127
000090 42 ba 02 14 00 be 60 b4 f7 5d 05 81 24 21 28 95
       66 -70 2 20 0 -66 96 -76 -9 93 5 -127 36 33 40 -107
0000a0 7f 7f f0 e0 7f 76 9e 11 ab a3 02 ba ab ba 36 d4
       127 127 -16 -32 127 118 -98 17 -85 -93 2 -70 -85 -70 54 -44
0000b0 d4 98 17 1a 78 cc d9 cc 7f 53 e7 d9 32 09 0b f3
       -44 -104 23 26 120 -52 -39 -52 127 83 -25 -39 50 9 11 -13
0000c0 54 ce 45 dc e4 7f 9f 3b 20 81 08 12 16 10 23 eb
       84 -50 69 -36 -28 127 -97 59 32 -127 8 18 22 16 35 -21
0000d0 52 9b ea ad e7 e1 d2 81 38 28 10 08 44 c2 ef 7f
       82 -101 -22 -83 -25 -31 -46 -127 56 40 16 8 68 -62 -17 127
0000e0 2f d5 9d 81 33 04 a9 81 e0 ca 2e ab ee f3 16 a4
       47 -43 -99 -127 51 4 -87 -127 -32 -54 46 -85 -18 -13 22 -92
0000f0 cd 3f c9 b0 24 bd 58 2a d9 03 2a d4 1b 19 f1 2e
       -51 63 -55 -80 36 -67 88 42 -39 3 42 -44 27 25 -15 46

MobilenetV1/Conv2d_4_pointwise/weights/read i1 [64, 1, 1, 32]
000000 7f 2b 1d 3b f2 d6 de fb c9 e7 28 e6 0f d8 10 56
       127 43 29 59 -14 -42 -34 -5 -55 -25 40 -26 15 -40 16 86
000010 e8 18 54 e8 53 08 0f e0 d5 e4 e0 d0 03 0a ea 18
       -24 24 84 -24 83 8 15 -32 -43 -28 -32 -48 3 10 -22 24
000020 06 ec 12 fe e9 de 52 10 1e 15 16 0f 19 10 0c ed
       6 -20 18 -2 -23 -34 82 16 30 21 22 15 25 16 12 -19
000030 02 dc 29 f9 36 fe 15 0f 81 ff fe 17 21 0e f1 37
       2 -36 41 -7 54 -2 21 15 -127 -1 -2 23 33 14 -15 55
000040 81 06 ec 02 07 d8 b1 d9 2d fa 22 ff 45 e9 f1 19
       -127 6 -20 2 7 -40 -79 -39 45 -6 34 -1 69 -23 -15 25
000050 c8 13 f1 ea f6 ab f9 fd 9e f4 06 06 a1 f9 f9 ee
       -56 19 -15 -22 -10 -85 -7 -3 -98 -12 6 6 -95 -7 -7 -18
000060 9a 08 f9 87 d7 81 e3 24 37 0d d8 ed 1f 39 f0 11
       -102 8 -7 -121 -41 -127 -29 36 55 13 -40 -19 31 57 -16 17
000070 fa c7 f5 e1 38 d1 1a fa d0 04 eb ea c4 df da e7
       -6 -57 -11 -31 56 -47 26 -6 -48 4 -21 -22 -60 -33 -38 -25
000080 c5 ea f9 02 5e b3 4f f4 c1 e7 14 01 f1 3d 32 a4
       -59 -22 -7 2 94 -77 79 -12 -63 -25 20 1 -15 61 50 -92
000090 dd 00 59 fe 7f ff d4 ec 56 e9 cf e7 ea 36 20 5c
       -35 0 89 -2 127 -1 -44 -20 86 -23 -49 -25 -22 54 32 92
0000a0 03 de f7 d3 04 ef 81 2a 3f dd d5 fe 1c 4b 42 b2
       3 -34 -9 -45 4 -17 -127 42 63 -35 -43 -2 28 75 66 -78
0000b0 35 2d 29 03 16 e2 e6 f3 35 f2 2e c9 e4 fd 36 1c
       53 45 41 3 22 -30 -26 -13 53 -14 46 -55 -28 -3 54 28
0000c0 22 f6 f5 f1 48 f0 2f 0b 1c f5 fd 0f 51 d0 f6 3c
       34 -10 -11 -15 72 -16 47 11 28 -11 -3 15 81 -48 -10 60
0000d0 71 11 f0 0d 7f 29 c8 06 a5 e8 e1 28 46 df 2b df
       113 17 -16 13 127 41 -56 6 -91 -24 -31 40 70 -33 43 -33
0000e0 ca 13 e6 a6 05 d6 cb 01 eb 0c 09 01 16 2b fe a9
       -54 19 -26 -90 5 -42 -53 1 -21 12 9 1 22 43 -2 -87
0000f0 06 03 dd f5 ea f9 1d ef 7f 02 1d e1 28 f5 d5 43
       6 3 -35 -11 -22 -7 29 -17 127 2 29 -31 40 -11 -43 67

MobilenetV1/Conv2d_5_depthwise/depthwise_weights/read i1 [1, 3, 3, 64]
000000 14 ed f2 f5 b5 33 3f 5d c9 b3 19 6e bf 49 da e1
       20 -19 -14 -11 -75 51 63 93 -55 -77 25 110 -65 73 -38 -31
000010 bc 30 ec d4 d6 ae 33 81 04 7f 06 81 f1 f2 ab 85
       -68 48 -20 -44 -42 -82 51 -127 4 127 6 -127 -15 -14 -85 -123
000020 25 a0 7f 0c 41 13 59 65 f9 9c 15 60 92 7f 0b 3c
       37 -96 127 12 65 19 89 101 -7 -100 21 96 -110 127 11 60
000030 1b d4 c4 34 9a bb df 63 c1 f6 b1 74 c3 98 f3 23
       27 -44 -60 52 -102 -69 -33 99 -63 -10 -79 116 -61 -104 -13 35
000040 7f 45 3e e5 57 81 81 67 c2 8d 84 7f 1c cc 6f fd
       127 69 62 -27 87 -127 -127 103 -62 -115 -124 127 28 -52 111 -3
000050 ec ee 53 f4 57 bb 6d 23 0c 7a 4a 9d 9d f5 b9 f9
       -20 -18 83 -12 87 -69 109 35 12 122 74 -99 -99 -11 -71 -7
000060 16 81 e3 8e 3c 66 3b 6f 84 81 17 37 b3 0c f3 f0
       22 -127 -29 -114 60 102 59 111 -124 -127 23 55 -77 12 -13 -16
000070 c4 e6 cf cb 97 87 ee 6b 88 e2 e3 de 48 09 38 23
       -60 -26 -49 -53 -105 -121 -18 107 -120 -30 -29 -34 72 9 56 35
000080 d6 ad 43 81 a9 db ad 7f cd 81 fa 68 fa ec 7f 1d
       -42 -83 67 -127 -87 -37 -83 127 -51 -127 -6 104 -6 -20 127 29
000090 81 ea ed d7 5e e0 43 41 67 46 16 29 81 7f 81 fa
       -127 -22 -19 -41 94 -32 67 65 103 70 22 41 -127 127 -127 -6
0000a0 08 e1 30 5c 40 1d 3b 6f e7 22 ee 6a d5 27 cb 3a
       8 -31 48 92 64 29 59 111 -25 34 -18 106 -43 39 -53 58
0000b0 39 f2 19 d2 81 94 3d b4 bb df 9c ea 1b bc 11 aa
       57 -14 25 -46 -127 -108 61 -76 -69 -33 -100 -22 27 -68 17 -86
0000c0 2e f6 95 ed 07 3a 23 c3 ce 57 e1 02 e3 07 e6 cf
       46 -10 -107 -19 7 58 35 -61 -50 87 -31 2 -29 7 -26 -49
0000d0 09 20 68 e4 ef 16 3e d3 38 5a 18 8a d5 1f ee 99
       9 32 104 -28 -17 22 62 -45 56 90 24 -118 -43 31 -18 -103
0000e0 0e b6 7d 10 6a 21 2c 16 f0 29 86 7f df 74 c2 62
       14 -74 125 16 106 33 44 22 -16 41 -122 127 -33 116 -62 98
0000f0 e2 c9 c1 3e 28 b7 0a 7d 0c ba f1 52 f9 81 c9 fe
       -30 -55 -63 62 40 -73 10 125 12 -70 -15 82 -7 -127 -55 -2

MobilenetV1/Conv2d_5_pointwise/weights/read i1 [64, 1, 1, 64]
000000 fb b0 da cf 0f 17 ed 0e d9 0e 04 dd 14 bb c9 fa
       -5 -80 -38 -49 15 23 -19 14 -39 14 4 -35 20 -69 -55 -6
000010 0a dd 7f ab 36 05 de 11 e9 4b 01 da 03 d1 ee f1
       10 -35 127 -85 54 5 -34 17 -23 75 1 -38 3 -47 -18 -15
000020 36 1f a4 e6 2a 07 27 47 2a 04 0a 1e e4 ce ef ff
       54 31 -92 -26 42 7 39 71 42 4 10 30 -28 -50 -17 -1
000030 25 06 fe fb 0e 1a 1e 0e 2e 08 ab 1f 0d e7 ff 30
       37 6 -2 -5 14 26 30 14 46 8 -85 31 13 -25 -1 48
000040 0a e1 e7 f0 11 04 23 41 d2 14 04 1d 07 c9 a2 c4
       10 -31 -25 -16 17 4 35 65 -46 20 4 29 7 -55 -94 -60
000050 cc fa 35 08 5c f4 e0 eb 13 1a f0 f2 ec f8 ec e9
       -52 -6 53 8 92 -12 -32 -21 19 26 -16 -14 -20 -8 -20 -23
000060 f8 7f ec 13 e9 fa f6 40 e3 f3 fc 09 03 c7 f7 dd
       -8 127 -20 19 -23 -6 -10 64 -29 -13 -4 9 3 -57 -9 -35
000070 00 e4 fb fb a9 fa e6 28 27 0b de 1d ee 18 fe e7
       0 -28 -5 -5 -87 -6 -26 40 39 11 -34 29 -18 24 -2 -25
000080 c1 39 f7 1e 05 fa d8 cf e9 d4 fc 30 00 50 47 14
       -63 57 -9 30 5 -6 -40 -49 -23 -44 -4 48 0 80 71 20
000090 1b ee d2 18 1b f1 1c 11 37 25 21 f8 06 ff ff f9
       27 -18 -46 24 27 -15 28 17 55 37 33 -8 6 -1 -1 -7
0000a0 bf 08 e8 d9 eb 20 0d d4 f3 32 09 18 1d 7f 20 0f
       -65 8 -24 -39 -21 32 13 -44 -13 50 9 24 29 127 32 15
0000b0 0f f6 0a 0c f7 ff 00 ed 35 03 2e 1d 02 05 f7 fc
       15 -10 10 12 -9 -1 0 -19 53 3 46 29 2 5 -9 -4
0000c0 12 f0 10 e6 ee fc f8 25 cd 41 14 fc 12 81 02 01
       18 -16 16 -26 -18 -4 -8 37 -51 65 20 -4 18 -127 2 1
0000d0 19 fc 5d ee 58 f0 ea f5 fd e2 03 18 f3 ea 13 f2
       25 -4 93 -18 88 -16 -22 -11 -3 -30 3 24 -13 -22 19 -14
0000e0 f5 13 fd e6 26 0a ed f0 1a f1 04 1e 40 c7 fe 35
       -11 19 -3 -26 38 10 -19 -16 26 -15 4 30 64 -57 -2 53
0000f0 d8 de ed df f6 ec d9 0f e8 26 d6 e1 08 e0 01 3c
       -40 -34 -19 -33 -10 -20 -39 15 -24 38 -42 -31 8 -32 1 60

MobilenetV1/Conv2d_6_depthwise/depthwise_weights/read i1 [1, 3, 3, 64]
000000 d6 a4 c7 04 fe 18 1d a1 45 c2 03 dd 6b 3e c6 7f
       -42 -92 -57 4 -2 24 29 -95 69 -62 3 -35 107 62 -58 127
000010 e4 a1 47 0b 5e 7f 16 89 7f c5 34 4a 81 7b 81 f2
       -28 -95 71 11 94 127 22 -119 127 -59 52 74 -127 123 -127 -14
000020 b6 7f fd 2f fa a1 d2 69 93 7f 03 48 81 d0 30 58
       -74 127 -3 47 -6 -95 -46 105 -109 127 3 72 -127 -48 48 88
000030 f9 b0 4a 00 30 81 d4 27 26 28 07 97 bd 67 f7 47
       -7 -80 74 0 48 -127 -44 39 38 40 7 -105 -67 103 -9 71
000040 a1 d8 7f a7 d2 eb db 81 f3 bf a5 7f 04 d9 ac e8
       -95 -40 127 -89 -46 -21 -37 -127 -13 -65 -91 127 4 -39 -84 -24
000050 95 a4 4e 4e 26 3e 7f e9 6a ba 84 81 3d 7f bf a5
       -107 -92 78 78 38 62 127 -23 106 -70 -124 -127 61 127 -65 -91
000060 81 58 ec 7f d6 e3 36 3b 8d a4 a3 7f 8b 01 18 4a
       -127 88 -20 127 -42 -29 54 59 -115 -92 -93 127 -117 1 24 74
000070 fc e1 ee e4 0d c1 ed 0f 7f c5 fa 2a 29 5c fa 54
       -4 -31 -18 -28 13 -63 -19 15 127 -59 -6 42 41 92 -6 84
000080 c6 81 ac 81 a5 e8 31 da 7f cd f0 1c 3a 5e 2e 35
       -58 -127 -84 -127 -91 -24 49 -38 127 -51 -16 28 58 94 46 53
000090 bc ec 7f 7f 0a 0c 41 ad 3e 50 f7 e4 d4 f5 58 9b
       -68 -20 127 127 10 12 65 -83 62 80 -9 -28 -44 -11 88 -101
0000a0 ce c8 34 6d 11 bc 6d d2 e2 f5 09 3c a4 47 4f cc
       -50 -56 52 109 17 -68 109 -46 -30 -11 9 60 -92 71 79 -52
0000b0 1e 5b 5c f4 72 1f 0c 42 42 22 34 7f 09 81 20 81
       30 91 92 -12 114 31 12 66 66 34 52 127 9 -127 32 -127
0000c0 b5 cc df 6b 38 87 18 99 42 d4 81 d1 7f 8c d9 af
       -75 -52 -33 107 56 -121 24 -103 66 -44 -127 -47 127 -116 -39 -81
0000d0 81 81 41 db 81 6f f1 a4 74 dc 7e fd d5 33 df af
       -127 -127 65 -37 -127 111 -15 -92 116 -36 126 -3 -43 51 -33 -81
0000e0 97 62 38 4c 81 35 81 48 1b ef 45 27 e4 0d 29 13
       -105 98 56 76 -127 53 -127 72 27 -17 69 39 -28 13 41 19
0000f0 a4 99 27 2c 10 18 fc ff d7 ed 20 e7 da ca 81 1f
       -92 -103 39 44 16 24 -4 -1 -41 -19 32 -25 -38 -54 -127 31

MobilenetV1/Conv2d_6_pointwise/weights/read i1 [128, 1, 1, 64]
000000 00 0a 1c 6b 2e e6 b0 fe e7 05 fc 27 1b d0 1f 1a
       0 10 28 107 46 -26 -80 -2 -25 5 -4 39 27 -48 31 26
000010 c0 f8 30 18 0b f9 ee 0c c9 1b 44 1c ed 05 d8 13
       -64 -8 48 24 11 -7 -18 12 -55 27 68 28 -19 5 -40 19
000020 e1 81 25 09 08 f0 ff 04 fa 2f 22 34 e1 f4 30 03
       -31 -127 37 9 8 -16 -1 4 -6 47 34 52 -31 -12 48 3
000030 14 ce e4 ba ef 1c d5 55 fe be 0e 13 f4 f8 28 15
       20 -50 -28 -70 -17 28 -43 85 -2 -66 14 19 -12 -8 40 21
000040 e1 ff fe 0c b7 9e d0 e1 fb e1 fb e8 1e 02 02 fb
       -31 -1 -2 12 -73 -98 -48 -31 -5 -31 -5 -24 30 2 2 -5
000050 c9 f8 81 d5 e2 51 28 e0 08 04 b3 f3 06 05 f5 d0
       -55 -8 -127 -43 -30 81 40 -32 8 4 -77 -13 6 5 -11 -48
000060 d6 9d 8f f7 e1 20 0a ef e6 36 c9 e3 e2 d8 19 08
       -42 -99 -113 -9 -31 32 10 -17 -26 54 -55 -29 -30 -40 25 8
000070 d9 26 02 1b 05 1a 0d af 33 16 de 61 c5 e6 17 1e
       -39 38 2 27 5 26 13 -81 51 22 -34 97 -59 -26 23 30
000080 ec 2d e4 10 e3 d2 7f ff 02 07 07 0f 0e f5 ee 2f
       -20 45 -28 16 -29 -46 127 -1 2 7 7 15 14 -11 -18 47
000090 d7 c9 de 26 08 f2 dd 02 1f 15 ef ec fa ab f1 e3
       -41 -55 -34 38 8 -14 -35 2 31 21 -17 -20 -6 -85 -15 -29
0000a0 22 58 9d 18 20 fc f5 de f6 13 2f d2 fe e0 00 ec
       34 88 -99 24 32 -4 -11 -34 -10 19 47 -46 -2 -32 0 -20
0000b0 fe 29 ee 12 ea e6 3c 86 4b 1a ab 17 f1 df f0 e8
       -2 41 -18 18 -22 -26 60 -122 75 26 -85 23 -15 -33 -16 -24
0000c0 c2 e5 07 23 7f f2 f5 be e2 0f 09 db 0b a7 15 b8
       -62 -27 7 35 127 -14 -11 -66 -30 15 9 -37 11 -89 21 -72
0000d0 16 16 e1 d5 d6 15 12 2d 36 d8 0b fc ce 11 ea 47
       22 22 -31 -43 -42 21 18 45 54 -40 11 -4 -50 17 -22 71
0000e0 e9 09 d5 ef d8 e6 20 f8 e7 2e 16 f8 15 09 f0 1e
       -23 9 -43 -17 -40 -26 32 -8 -25 46 22 -8 21 9 -16 30
0000f0 1d c8 f1 05 15 37 ac 46 fa d3 fb 10 f8 d4 09 e6
       29 -56 -15 5 21 55 -84 70 -6 -45 -5 16 -8 -44 9 -26

MobilenetV1/Conv2d_7_depthwise/depthwise_weights/read i1 [1, 3, 3, 128]
000000 24 42 fb d4 00 1d e4 b4 f5 bf 07 07 3e 5d 18 ce
       36 66 -5 -44 0 29 -28 -76 -11 -65 7 7 62 93 24 -50
000010 ea 12 0d 7e 73 08 b7 33 a6 bf 24 10 f4 e3 15 44
       -22 18 13 126 115 8 -73 51 -90 -65 36 16 -12 -29 21 68
000020 d7 ec f0 c5 a6 77 7f b5 32 1b f7 e3 7f c4 bd 1b
       -41 -20 -16 -59 -90 119 127 -75 50 27 -9 -29 127 -60 -67 27
000030 c6 e8 05 ec 47 81 ad 09 d5 0d 1c c4 07 07 2f fb
       -58 -24 5 -20 71 -127 -83 9 -43 13 28 -60 7 7 47 -5
000040 f2 4f c5 cb 0d 44 f1 0f c6 ec 7f f7 91 5d 05 7f
       -14 79 -59 -53 13 68 -15 15 -58 -20 127 -9 -111 93 5 127
000050 cb 09 81 6e 06 ff 14 11 e1 9c 26 0c d5 74 da 55
       -53 9 -127 110 6 -1 20 17 -31 -100 38 12 -43 116 -38 85
000060 7f f7 ff f4 fb 34 8a de ea 74 b6 49 d3 8b ca e5
       127 -9 -1 -12 -5 52 -118 -34 -22 116 -74 73 -45 -117 -54 -27
000070 b3 53 81 b9 bc 40 1f 31 97 06 81 d7 79 c4 34 0e
       -77 83 -127 -71 -68 64 31 49 -105 6 -127 -41 121 -60 52 14
000080 55 7f c5 a7 48 d4 f8 20 81 25 9c 7f 45 08 77 f2
       85 127 -59 -89 72 -44 -8 32 -127 37 -100 127 69 8 119 -14
000090 d8 0c 90 7f 35 f1 81 84 81 dc c0 25 39 08 6b 26
       -40 12 -112 127 53 -15 -127 -124 -127 -36 -64 37 57 8 107 38
0000a0 5b e5 d2 81 81 7f 9e 46 58 f2 fd e0 d4 98 08 e6
       91 -27 -46 -127 -127 127 -98 70 88 -14 -3 -32 -44 -104 8 -26
0000b0 25 b8 39 31 2c 0b 81 fa 1c 7f 1f 96 ec 27 90 0b
       37 -72 57 49 44 11 -127 -6 28 127 31 -106 -20 39 -112 11
0000c0 ed 52 a4 0c 11 fa 6b 5e 76 15 ed 81 ad 22 25 2b
       -19 82 -92 12 17 -6 107 94 118 21 -19 -127 -83 34 37 43
0000d0 d1 81 eb 7f 45 83 7f f1 ed b9 55 d5 df d9 b3 7f
       -47 -127 -21 127 69 -125 127 -15 -19 -71 85 -43 -33 -39 -77 127
0000e0 2e 81 2b 26 81 ec f3 81 9a 71 e5 d1 01 81 9c d2
       46 -127 43 38 -127 -20 -13 -127 -102 113 -27 -47 1 -127 -100 -46
0000f0 de ea 9d 92 d2 4c f1 0a 19 14 b1 93 7f a2 27 46
       -34 -22 -99 -110 -46 76 -15 10 25 20 -79 -109 127 -94 39 70

MobilenetV1/Conv2d_7_pointwise/weights/read i1 [128, 1, 1, 128]
000000 fd fa 07 02 21 00 18 fe fb f2 0d 2f 06 2b e8 df
       -3 -6 7 2 33 0 24 -2 -5 -14 13 47 6 43 -24 -33
000010 d5 13 fb d2 21 eb ef 0f fd f1 f7 41 14 19 e2 06
       -43 19 -5 -46 33 -21 -17 15 -3 -15 -9 65 20 25 -30 6
000020 02 e5 fd ea 04 f7 11 e0 10 15 ee f3 18 13 f8 fe
       2 -27 -3 -22 4 -9 17 -32 16 21 -18 -13 24 19 -8 -2
000030 33 cb 0b d2 f6 14 d9 f4 f5 ec e6 18 fe e2 04 ee
       51 -53 11 -46 -10 20 -39 -12 -11 -20 -26 24 -2 -30 4 -18
000040 e7 f6 09 22 ed ee cf 03 ec 05 b0 02 02 9f 0b e8
       -25 -10 9 34 -19 -18 -49 3 -20 5 -80 2 2 -97 11 -24
000050 f8 fb cf e7 de f7 ed 10 00 d8 d3 2f 0a ef c5 de
       -8 -5 -49 -25 -34 -9 -19 16 0 -40 -45 47 10 -17 -59 -34
000060 f8 0f ea 00 e6 50 c4 ff 05 f1 19 d4 30 e6 1b db
       -8 15 -22 0 -26 80 -60 -1 5 -15 25 -44 48 -26 27 -37
000070 00 7f df 04 1e 2e 06 03 12 09 e9 19 d4 0e c2 f6
       0 127 -33 4 30 46 6 3 18 9 -23 25 -44 14 -62 -10
000080 ed 19 c8 0e 3a 48 a5 08 d3 0a ec ec 1c e8 6e 09
       -19 25 -56 14 58 72 -91 8 -45 10 -20 -20 28 -24 110 9
000090 07 37 15 e4 66 d9 f0 f5 fd c3 22 ca f2 03 f2 f6
       7 55 21 -28 102 -39 -16 -11 -3 -61 34 -54 -14 3 -14 -10
0000a0 e4 eb 0f 1b 57 f8 02 03 00 e0 07 07 fb f5 00 0d
       -28 -21 15 27 87 -8 2 3 0 -32 7 7 -5 -11 0 13
0000b0 13 f8 f3 03 12 4b 38 fc f7 03 fa c5 0a 11 dc 12
       19 -8 -13 3 18 75 56 -4 -9 3 -6 -59 10 17 -36 18
0000c0 27 2d 2f 04 ea d6 c3 2c f8 f6 00 fe 0e 3e 05 1b
       39 45 47 4 -22 -42 -61 44 -8 -10 0 -2 14 62 5 27
0000d0 fc 01 23 f1 fd f2 f1 fe eb fe fe ef ff 2c 05 0f
       -4 1 35 -15 -3 -14 -15 -2 -21 -2 -2 -17 -1 44 5 15
0000e0 cf ed 02 33 22 04 0e 07 f1 da d5 f0 e7 56 0b 47
       -49 -19 2 51 34 4 14 7 -15 -38 -43 -16 -25 86 11 71
0000f0 03 dc 58 fc eb 13 ea fc 27 75 24 26 7f 2b fc 41
       3 -36 88 -4 -21 19 -22 -4 39 117 36 38 127 43 -4 65

MobilenetV1/Conv2d_8_depthwise/depthwise_weights/read i1 [1, 3, 3, 128]
000000 c8 90 0a b0 3e a2 fe bd 9c 3c 2c 56 de 7f 03 57
       -56 -112 10 -80 62 -94 -2 -67 -100 60 44 86 -34 127 3 87
000010 24 f6 06 81 c9 1f 81 7f ea bb 2a 81 cc 31 81 cf
       36 -10 6 -127 -55 31 -127 127 -22 -69 42 -127 -52 49 -127 -49
000020 b4 d7 1d 95 0f 75 98 81 81 ed 96 8d 3b 08 02 ee
       -76 -41 29 -107 15 117 -104 -127 -127 -19 -106 -115 59 8 2 -18
000030 48 7f b7 d2 c9 81 11 0a c2 ea e5 d6 81 07 d7 c5
       72 127 -73 -46 -55 -127 17 10 -62 -22 -27 -42 -127 7 -41 -59
000040 fb 55 a5 cf 81 d0 dc fa 81 f6 c4 b9 e3 d5 e2 81
       -5 85 -91 -49 -127 -48 -36 -6 -127 -10 -60 -71 -29 -43 -30 -127
000050 e0 1a 09 b8 44 92 23 8b 02 81 41 b7 0b 0b e2 7f
       -32 26 9 -72 68 -110 35 -117 2 -127 65 -73 11 11 -30 127
000060 23 e9 e9 da 06 d7 0e 7f d5 a0 c7 5f 04 29 e1 d4
       35 -23 -23 -38 6 -41 14 127 -43 -96 -57 95 4 41 -31 -44
000070 ec b5 f4 e0 bf 9d f9 7f af e8 03 3d dc eb 02 ad
       -20 -75 -12 -32 -65 -99 -7 127 -81 -24 3 61 -36 -21 2 -83
000080 7f 81 e1 06 c9 a4 d6 81 e3 7f 4f 7f bb 43 0a ff
       127 -127 -31 6 -55 -92 -42 -127 -29 127 79 127 -69 67 10 -1
000090 05 f3 e6 9e bb 24 da 3a 99 d8 15 a0 c3 29 a9 be
       5 -13 -26 -98 -69 36 -38 58 -103 -40 21 -96 -61 41 -87 -66
0000a0 f0 96 71 c9 7f 7f b1 95 9e 81 be 9e 0d 9d d0 ba
       -16 -106 113 -55 127 127 -79 -107 -98 -127 -66 -98 13 -99 -48 -70
0000b0 f7 f0 20 da e9 8d fa 25 f9 25 a6 bd d1 71 07 81
       -9 -16 32 -38 -23 -115 -6 37 -7 37 -90 -67 -47 113 7 -127
0000c0 bb ce 11 2c 0e f9 c1 4a 3e e5 a1 b1 20 9e c7 06
       -69 -50 17 44 14 -7 -63 74 62 -27 -95 -79 32 -98 -57 6
0000d0 81 5b ed e6 60 89 e5 9a 16 c8 13 de e3 b9 73 18
       -127 91 -19 -26 96 -119 -27 -102 22 -56 19 -34 -29 -71 115 24
0000e0 e3 81 c8 a7 2a 09 16 30 18 ba c3 6a e4 dd f6 0e
       -29 -127 -56 -89 42 9 22 48 24 -70 -61 106 -28 -35 -10 14
0000f0 17 94 ce 8a 8a e4 36 34 b5 81 d9 78 f8 30 f9 08
       23 -108 -50 -118 -118 -28 54 52 -75 -127 -39 120 -8 48 -7 8

MobilenetV1/Conv2d_8_pointwise/weights/read i1 [128, 1, 1, 128]
000000 14 0f e3 f7 08 f7 fb 05 10 1a 02 f5 02 24 00 28
       20 15 -29 -9 8 -9 -5 5 16 26 2 -11 2 36 0 40
000010 f4 0c f8 06 04 05 01 24 e6 f3 fd 23 0a 0c 2a 02
       -12 12 -8 6 4 5 1 36 -26 -13 -3 35 10 12 42 2
000020 0d ff 03 05 ee 10 d5 f8 1a 13 f9 11 f7 0e f4 14
       13 -1 3 5 -18 16 -43 -8 26 19 -7 17 -9 14 -12 20
000030 ef 10 04 11 fe fe 00 0f 13 39 f6 ff 0d fb 10 d4
       -17 16 4 17 -2 -2 0 15 19 57 -10 -1 13 -5 16 -44
000040 fe 3b 1d 0b ef e9 fa 15 10 03 18 ed f9 1a 17 01
       -2 59 29 11 -17 -23 -6 21 16 3 24 -19 -7 26 23 1
000050 f5 1f fc 0b 06 ff 0a 11 31 0c 09 07 0d ea fc f7
       -11 31 -4 11 6 -1 10 17 49 12 9 7 13 -22 -4 -9
000060 de 03 0a ea 17 7f 07 26 0e f3 01 14 f9 f7 03 22
       -34 3 10 -22 23 127 7 38 14 -13 1 20 -7 -9 3 34
000070 fd db f5 0e d4 02 f5 38 ee 07 ea 1f c3 fa 12 eb
       -3 -37 -11 14 -44 2 -11 56 -18 7 -22 31 -61 -6 18 -21
000080 ff 04 2c e2 0e 15 09 01 24 2e 00 f0 e7 2b f9 4e
       -1 4 44 -30 14 21 9 1 36 46 0 -16 -25 43 -7 78
000090 f6 19 0f 1f 0e 3e 11 31 fd eb f0 27 12 ff 07 00
       -10 25 15 31 14 62 17 49 -3 -21 -16 39 18 -1 7 0
0000a0 01 c8 09 0f 03 02 da fc 1f 07 03 0c 1a e7 fd 10
       1 -56 9 15 3 2 -38 -4 31 7 3 12 26 -25 -3 16
0000b0 dc ec fb 04 ff 01 f5 0c f1 27 e1 0e 0f e1 4d fb
       -36 -20 -5 4 -1 1 -11 12 -15 39 -31 14 15 -31 77 -5
0000c0 07 cb 13 03 13 11 04 21 1f f5 1f f6 ca 2b ef 03
       7 -53 19 3 19 17 4 33 31 -11 31 -10 -54 43 -17 3
0000d0 d6 02 04 1b 09 e9 04 1d 7f 0e 19 00 24 f9 f6 11
       -42 2 4 27 9 -23 4 29 127 14 25 0 36 -7 -10 17
0000e0 0c 01 04 18 01 75 ed 54 09 e5 02 06 0b ed 56 f4
       12 1 4 24 1 117 -19 84 9 -27 2 6 11 -19 86 -12
0000f0 e4 fc d9 fd c9 e2 f3 33 34 fa db 0f 07 fb 21 eb
       -28 -4 -39 -3 -55 -30 -13 51 52 -6 -37 15 7 -5 33 -21

MobilenetV1/Conv2d_9_depthwise/depthwise_weights/read i1 [1, 3, 3, 128]
000000 d5 35 01 03 c7 71 20 3a 81 17 ba 81 b0 36 67 3e
       -43 53 1 3 -57 113 32 58 -127 23 -70 -127 -80 54 103 62
000010 f8 93 fd 63 81 d1 46 e7 85 fe 81 e9 6a 44 ae 0a
       -8 -109 -3 99 -127 -47 70 -25 -123 -2 -127 -23 106 68 -82 10
000020 d0 f5 73 7f 81 41 38 3a 2b ee aa 0b 7f 24 55 33
       -48 -11 115 127 -127 65 56 58 43 -18 -86 11 127 36 85 51
000030 c4 00 ec f3 bc 7f e5 bc 90 e0 14 44 91 e6 b1 d0
       -60 0 -20 -13 -68 127 -27 -68 -112 -32 20 68 -111 -26 -79 -48
000040 dd ed 7f 23 81 6b 7f 0a db 62 a7 07 99 05 c7 ef
       -35 -19 127 35 -127 107 127 10 -37 98 -89 7 -103 5 -57 -17
000050 df dd 90 cd 1b c1 03 90 98 cd 40 e4 e0 fe e6 fb
       -33 -35 -112 -51 27 -63 3 -112 -104 -51 64 -28 -32 -2 -26 -5
000060 4c 2e 90 ce 7f aa 16 1c f4 40 7d a9 db e2 b8 81
       76 46 -112 -50 127 -86 22 28 -12 64 125 -87 -37 -30 -72 -127
000070 b7 93 25 22 c6 c0 02 7f 5a ed 22 25 d2 4d dc be
       -73 -109 37 34 -58 -64 2 127 90 -19 34 37 -46 77 -36 -66
000080 d8 2a 32 c6 db 23 0e 16 d0 81 cf b4 f0 f5 7f 41
       -40 42 50 -58 -37 35 14 22 -48 -127 -49 -76 -16 -11 127 65
000090 da bd ec 22 ac b6 7f f6 81 a4 87 00 20 7f f7 f1
       -38 -67 -20 34 -84 -74 127 -10 -127 -92 -121 0 32 127 -9 -15
0000a0 b9 4a 12 40 9c 56 b4 54 0b f0 17 da 08 3e f0 11
       -71 74 18 64 -100 86 -76 84 11 -16 23 -38 8 62 -16 17
0000b0 b2 12 d5 51 c8 60 2d d2 81 de d1 ac ae 7f aa af
       -78 18 -43 81 -56 96 45 -46 -127 -34 -47 -84 -82 127 -86 -81
0000c0 d4 a4 17 21 a5 6a 3d f8 0f 7f 9b 35 e2 24 e8 81
       -44 -92 23 33 -91 106 61 -8 15 127 -101 53 -30 36 -24 -127
0000d0 0a dd ff d2 40 d6 c4 8d 88 81 9d 9b 12 37 24 cb
       10 -35 -1 -46 64 -42 -60 -115 -120 -127 -99 -101 18 55 36 -53
0000e0 14 f8 cb 21 21 a2 81 db e7 26 62 30 f2 c8 cd b6
       20 -8 -53 33 33 -94 -127 -37 -25 38 98 48 -14 -56 -51 -74
0000f0 ee b3 1a 7f 02 9b 95 3a 7f e3 48 c8 81 e9 de c4
       -18 -77 26 127 2 -101 -107 58 127 -29 72 -56 -127 -23 -34 -60

MobilenetV1/Conv2d_9_pointwise/weights/read i1 [128, 1, 1, 128]
000000 b8 c5 b7 1a fe c1 ac af 0d ea e9 13 d8 de aa a4
       -72 -59 -73 26 -2 -63 -84 -81 13 -22 -23 19 -40 -34 -86 -92
000010 f0 f8 00 0d d4 00 f9 ed e7 05 fa f8 ed 07 09 04
       -16 -8 0 13 -44 0 -7 -19 -25 5 -6 -8 -19 7 9 4
000020 12 de d8 f0 0d 9d 18 2a f4 f2 e3 00 f1 f4 ec 17
       18 -34 -40 -16 13 -99 24 42 -12 -14 -29 0 -15 -12 -20 23
000030 ef fe f5 f4 0f a7 0d 98 11 d2 00 af ff 15 ec f5
       -17 -2 -11 -12 15 -89 13 -104 17 -46 0 -81 -1 21 -20 -11
000040 e5 e8 b7 c6 06 c9 cf ed 00 ab 1e 0b cc b9 f9 02
       -27 -24 -73 -58 6 -55 -49 -19 0 -85 30 11 -52 -71 -7 2
000050 bd d1 0a 02 a7 18 17 10 f4 12 ea 17 b8 9b cc e3
       -67 -47 10 2 -89 24 23 16 -12 18 -22 23 -72 -101 -52 -29
000060 b2 fa c0 e2 a9 07 cc fe 02 81 15 02 f5 00 0b 10
       -78 -6 -64 -30 -87 7 -52 -2 2 -127 21 2 -11 0 11 16
000070 f7 06 c6 ab 02 ee bc e5 12 02 ae 0c be e8 fb 08
       -9 6 -58 -85 2 -18 -68 -27 18 2 -82 12 -66 -24 -5 8
000080 1e cb 02 e0 11 f1 eb 02 e4 df 09 0d 6d fc 02 e5
       30 -53 2 -32 17 -15 -21 2 -28 -33 9 13 109 -4 2 -27
000090 e8 f0 f8 e2 12 1c e7 0c 0c 22 08 f8 dc f3 0b 36
       -24 -16 -8 -30 18 28 -25 12 12 34 8 -8 -36 -13 11 54
0000a0 13 0a ee ec 02 d5 03 04 f9 ba ef e1 e4 e8 eb 7f
       19 10 -18 -20 2 -43 3 4 -7 -70 -17 -31 -28 -24 -21 127
0000b0 0b 23 17 fa fa 07 09 eb 10 09 e7 ce 4c ff 1c f8
       11 35 23 -6 -6 7 9 -21 16 9 -25 -50 76 -1 28 -8
0000c0 ef f4 ef f5 ee 2c d5 76 1c ea 0f e4 df ef e3 f6
       -17 -12 -17 -11 -18 44 -43 118 28 -22 15 -28 -33 -17 -29 -10
0000d0 0a f4 0f 29 10 0d 05 e3 f7 15 14 f4 5f f8 05 09
       10 -12 15 41 16 13 5 -29 -9 21 20 -12 95 -8 5 9
0000e0 e9 e0 fb 17 e8 e3 e6 e0 39 ef df 0e 05 0f ea 0a
       -23 -32 -5 23 -24 -29 -26 -32 57 -17 -33 14 5 15 -22 10
0000f0 0e 3d 21 03 f1 0d f4 0c 12 01 29 1a da 46 e8 ec
       14 61 33 3 -15 13 -12 12 18 1 41 26 -38 70 -24 -20

MobilenetV1/Logits/Conv2d_1c_1x1/weights/read i1 [6, 1, 1, 256]
000000 9e c7 ab bb aa c4 c4 e0 9f 94 9d c3 d6 a9 a9 d3
       -98 -57 -85 -69 -86 -60 -60 -32 -97 -108 -99 -61 -42 -87 -87 -45
000010 ac b6 b7 bd bb ad ab bf a6 ae 9b 9a 95 91 8f b8
       -84 -74 -73 -67 -69 -83 -85 -65 -90 -82 -101 -102 -107 -111 -113 -72
000020 ac 92 a3 b3 d7 97 9c 97 a4 9a b3 81 cd b1 b0 b4
       -84 -110 -93 -77 -41 -105 -100 -105 -92 -102 -77 -127 -51 -79 -80 -76
000030 90 9b a2 b7 bf 8e ac a0 ba b4 99 a2 9e a8 9d af
       -112 -101 -94 -73 -65 -114 -84 -96 -70 -76 -103 -94 -98 -88 -99 -81
000040 ca 8c df a7 a2 bb d9 cf e6 a6 cb e5 a4 94 98 b5
       -54 -116 -33 -89 -94 -69 -39 -49 -26 -90 -53 -27 -92 -108 -104 -75
000050 de de b0 ad b6 b3 a6 a3 b4 cf b7 a4 ac af c7 b4
       -34 -34 -80 -83 -74 -77 -90 -93 -76 -49 -73 -92 -84 -81 -57 -76
000060 bf 9b a7 a1 a8 a1 b1 c6 b9 96 a3 db 93 9f d6 b4
       -65 -101 -89 -95 -88 -95 -79 -58 -71 -106 -93 -37 -109 -97 -42 -76
000070 90 9e 87 d8 dd cf ad 92 a5 c3 b4 87 b7 ab b4 98
       -112 -98 -121 -40 -35 -49 -83 -110 -91 -61 -76 -121 -73 -85 -76 -104
000080 aa 87 8f ac a4 c0 bb c7 a5 a2 aa 85 99 b8 c0 ba
       -86 -121 -113 -84 -92 -64 -69 -57 -91 -94 -86 -123 -103 -72 -64 -70
000090 b1 93 ac bf 99 ab a6 9d 9f 9e af 92 8a 9f b4 bd
       -79 -109 -84 -65 -103 -85 -90 -99 -97 -98 -81 -110 -118 -97 -76 -67
0000a0 be aa a2 aa a1 93 dd 8e ad bc 9c f5 e6 90 9d af
       -66 -86 -94 -86 -95 -109 -35 -114 -83 -68 -100 -11 -26 -112 -99 -81
0000b0 ac c3 84 b3 c2 b6 a1 c3 cb af a3 dc c2 93 e4 9d
       -84 -61 -124 -77 -62 -74 -95 -61 -53 -81 -93 -36 -62 -109 -28 -99
0000c0 a2 cc ae ae cb 91 9a ae d2 b2 98 bb 99 c7 f6 94
       -94 -52 -82 -82 -53 -111 -102 -82 -46 -78 -104 -69 -103 -57 -10 -108
0000d0 bf 9e 91 d6 a2 83 d8 85 a7 a9 bb 91 ac 91 9a b1
       -65 -98 -111 -42 -94 -125 -40 -123 -89 -87 -69 -111 -84 -111 -102 -79
0000e0 e3 ab 9b ac a5 b0 aa ba b0 bd 98 bf c2 bf a9 bd
       -29 -85 -101 -84 -91 -80 -86 -70 -80 -67 -104 -65 -62 -65 -87 -67
0000f0 c5 c5 c8 8a b0 9a a4 ee aa 86 db bf e7 c5 92 a1
       -59 -59 -56 -118 -80 -102 -92 -18 -86 -122 -37 -65 -25 -59 -110 -95
