output/person_detection.tflite (tflite, 300568 bytes, 28 tensors)

MobilenetV1/Conv2d_0/weights/read i1 [1, 3, 3, 8]
00000000: 2fbf 4453 3cbc 4568 68ec a34a 61a7 c694
00000010: 7f3b 7f0c 35c8 9d05 2b3f 027f 08bc 2577
00000020: 22c1 1d6c 2881 e181 f578 08ff 19c0 d916
00000030: ca16 5c31 b612 8116 a674 4d24 81d8 21fc
00000040: 8c7f 57fa c2e9 5beb
47 -65 68 83 60 -68 69 104
104 -20 -93 74 97 -89 -58 -108
127 59 127 12 53 -56 -99 5
43 63 2 127 8 -68 37 119
34 -63 29 108 40 -127 -31 -127
-11 120 8 -1 25 -64 -39 22
-54 22 92 49 -74 18 -127 22
-90 116 77 36 -127 -40 33 -4
-116 127 87 -6 -62 -23 91 -21

MobilenetV1/Conv2d_10_depthwise/depthwise_weights/read i1 [1, 3, 3, 128]
00000000: 2f8c 7fed e02b e53e 9db7 dd62 5eda 587f
00000010: 362a 3bde 3bd3 f3e3 7fb8 48d3 fbe3 479b
00000020: 537f b74b 1e40 dd27 dbff f599 7f04 599c
00000030: bdf0 ec81 76bc 817c 5a7f 23f7 7f5f 6509
00000040: 2a49 a611 e01f 6751 ecaa fd4b 33b2 69eb
00000050: c25e f57b 49c5 7fbf 57a8 ce15 81f8 4c9b
00000060: 7c7f da32 f17f 35f8 bf6e d6c6 5c7f 8ce1
00000070: 72f7 ddd4 d4cb c320 fdd2 817b 7aa3 4134
00000080: fc44 43a3 7340 3530 f3d8 f638 a0dd 48f3
00000090: 3c98 17d1 7f84 66bf 54a5 17d5 fa09 38f3
000000a0: e146 8c7f ffdd 9272 be7f f1ee cb2d 4ebb
000000b0: a8fe 61b4 13b5 9728 3549 56e8 3d34 aa1b
000000c0: 7fdc f136 e47f ebaa 208c 217f f297 7f0c
000000d0: c836 cf7f 2e86 6381 f0ae 8104 0320 06c0
000000e0: 013f 81c0 3718 ca7f bf68 ce9d 5f45 d9dc
000000f0: 65c7 7f59 ea17 81f4 63b8 b89f 3800 ebe9
47 -116 127 -19 -32 43 -27 62
-99 -73 -35 98 94 -38 88 127
54 42 59 -34 59 -45 -13 -29
127 -72 72 -45 -5 -29 71 -101
83 127 -73 75 30 64 -35 39
-37 -1 -11 -103 127 4 89 -100
-67 -16 -20 -127 118 -68 -127 124
90 127 35 -9 127 95 101 9
42 73 -90 17 -32 31 103 81
-20 -86 -3 75 51 -78 105 -21
-62 94 -11 123 73 -59 127 -65
87 -88 -50 21 -127 -8 76 -101
124 127 -38 50 -15 127 53 -8
-65 110 -42 -58 92 127 -116 -31
114 -9 -35 -44 -44 -53 -61 32
-3 -46 -127 123 122 -93 65 52
-4 68 67 -93 115 64 53 48
-13 -40 -10 56 -96 -35 72 -13
60 -104 23 -47 127 -124 102 -65
84 -91 23 -43 -6 9 56 -13
-31 70 -116 127 -1 -35 -110 114
-66 127 -15 -18 -53 45 78 -69
-88 -2 97 -76 19 -75 -105 40
53 73 86 -24 61 52 -86 27
127 -36 -15 54 -28 127 -21 -86
32 -116 33 127 -14 -105 127 12
-56 54 -49 127 46 -122 99 -127
-16 -82 -127 4 3 32 6 -64
1 63 -127 -64 55 24 -54 127
-65 104 -50 -99 95 69 -39 -36
101 -57 127 89 -22 23 -127 -12
99 -72 -72 -97 56 0 -21 -23

MobilenetV1/Conv2d_10_pointwise/weights/read i1 [128, 1, 1, 128]
00000000: f906 f043 2e2e fdef 1df0 ecfd eefb e008
00000010: df0c 22ed eb36 08f0 06ee 2648 c3db defc
00000020: c365 05c9 0ef2 f84f c103 5c24 1c16 aff8
00000030: 2cf0 af06 55c9 f423 fe30 3344 594f c47f
00000040: fd20 3004 23f8 27db 2def 6115 f7ff d958
00000050: fea6 cb2c 9edf ea09 bcfa 1d31 280c 1e1f
00000060: 7635 3b29 da4c 21ed 32df f4fe 1328 0ae3
00000070: a7f9 4203 e6df 2713 f51b fb0a df2b 0fff
00000080: eff1 23ed bd0f c24d 12f5 fdf0 30f8 2b3f
00000090: c8e1 c3f6 03f7 6dc8 0629 52fa e1cb 0df2
000000a0: ca1a 2be1 2a24 27ca efdc e5e1 3003 b7c5
000000b0: ce81 39e6 1ed4 ce3a 4f1e f936 b53f 07f4
000000c0: 259f d603 e51c f628 3134 d821 ece9 7fb4
000000d0: 9018 da65 8923 05de bdef 15bb 1b00 3118
000000e0: 3597 c463 e5b9 e32a cdc1 9c05 10f2 f210
000000f0: 0416 0ddd c22a 2857 0a12 c865 2f11 1b01
-7 6 -16 67 46 46 -3 -17
29 -16 -20 -3 -18 -5 -32 8
-33 12 34 -19 -21 54 8 -16
6 -18 38 72 -61 -37 -34 -4
-61 101 5 -55 14 -14 -8 79
-63 3 92 36 28 22 -81 -8
44 -16 -81 6 85 -55 -12 35
-2 48 51 68 89 79 -60 127
-3 32 48 4 35 -8 39 -37
45 -17 97 21 -9 -1 -39 88
-2 -90 -53 44 -98 -33 -22 9
-68 -6 29 49 40 12 30 31
118 53 59 41 -38 76 33 -19
50 -33 -12 -2 19 40 10 -29
-89 -7 66 3 -26 -33 39 19
-11 27 -5 10 -33 43 15 -1
-17 -15 35 -19 -67 15 -62 77
18 -11 -3 -16 48 -8 43 63
-56 -31 -61 -10 3 -9 109 -56
6 41 82 -6 -31 -53 13 -14
-54 26 43 -31 42 36 39 -54
-17 -36 -27 -31 48 3 -73 -59
-50 -127 57 -26 30 -44 -50 58
79 30 -7 54 -75 63 7 -12
37 -97 -42 3 -27 28 -10 40
49 52 -40 33 -20 -23 127 -76
-112 24 -38 101 -119 35 5 -34
-67 -17 21 -69 27 0 49 24
53 -105 -60 99 -27 -71 -29 42
-51 -63 -100 5 16 -14 -14 16
4 22 13 -35 -62 42 40 87
10 18 -56 101 47 17 27 1

MobilenetV1/Conv2d_11_depthwise/depthwise_weights/read i1 [1, 3, 3, 128]
00000000: 4749 147f 58cd 86bf d5e3 c104 c232 bbaa
00000010: 65fa a5f1 18f0 f7f2 c312 6581 5b51 1481
00000020: 7f00 f4d4 1e9a e731 ed11 ede6 ed96 32a1
00000030: beed 8237 1081 a17f 5a07 a3b1 9123 6b7f
00000040: 8110 78d4 d1a5 d4fa 81af 7f0b 211c 2337
00000050: ccea ab7f 7b1c fff0 d26e eb9e a1e3 9233
00000060: 43d3 9444 f373 3026 f8f4 2a1b e592 43b3
00000070: 8153 46d9 8abd c3cb bdf2 817f cbea 02c2
00000080: 2bc6 7f40 59fc d4b8 b8c5 c9cc faf3 f7f0
00000090: 0dc4 a17f 0d81 039e 111f 7fe3 752f b1e3
000000a0: 1cf0 8181 7f81 f87f 2881 e6db 41db 25e6
000000b0: 5199 aec8 3be8 8136 f1df 16fc 010e 7f35
000000c0: db07 4828 df81 810b 2fc1 20a7 7fbf f47f
000000d0: 8feb 8132 640b eabb e132 47b9 8111 db08
000000e0: 51b8 ac7f 7fc1 bd1b 4dd5 bb26 0e27 7fe1
000000f0: bc55 f31a abb4 b5a5 d0d5 810a 2ab2 dbfc
71 73 20 127 88 -51 -122 -65
-43 -29 -63 4 -62 50 -69 -86
101 -6 -91 -15 24 -16 -9 -14
-61 18 101 -127 91 81 20 -127
127 0 -12 -44 30 -102 -25 49
-19 17 -19 -26 -19 -106 50 -95
-66 -19 -126 55 16 -127 -95 127
90 7 -93 -79 -111 35 107 127
-127 16 120 -44 -47 -91 -44 -6
-127 -81 127 11 33 28 35 55
-52 -22 -85 127 123 28 -1 -16
-46 110 -21 -98 -95 -29 -110 51
67 -45 -108 68 -13 115 48 38
-8 -12 42 27 -27 -110 67 -77
-127 83 70 -39 -118 -67 -61 -53
-67 -14 -127 127 -53 -22 2 -62
43 -58 127 64 89 -4 -44 -72
-72 -59 -55 -52 -6 -13 -9 -16
13 -60 -95 127 13 -127 3 -98
17 31 127 -29 117 47 -79 -29
28 -16 -127 -127 127 -127 -8 127
40 -127 -26 -37 65 -37 37 -26
81 -103 -82 -56 59 -24 -127 54
-15 -33 22 -4 1 14 127 53
-37 7 72 40 -33 -127 -127 11
47 -63 32 -89 127 -65 -12 127
-113 -21 -127 50 100 11 -22 -69
-31 50 71 -71 -127 17 -37 8
81 -72 -84 127 127 -63 -67 27
77 -43 -69 38 14 39 127 -31
-68 85 -13 26 -85 -76 -75 -91
-48 -43 -127 10 42 -78 -37 -4

MobilenetV1/Conv2d_11_pointwise/weights/read i1 [128, 1, 1, 128]
00000000: de02 3322 1f0e e752 c04c afc0 1e04 102b
00000010: e1fa c9bd a0f1 41f3 4d32 bbf8 cad7 b1fc
00000020: f7e7 9e9a f115 560f f3c8 1b01 f5c1 ac05
00000030: fe01 4edf f5d7 570b 1d10 db3c f409 21d1
00000040: 20f3 0608 2a37 fc0d 1453 38fa d0de a6cb
00000050: d0f3 0212 42cd edec 2881 ed18 34fd cb68
00000060: e3f9 3ff2 0a00 efd5 b70a 53c4 e0fa fac3
00000070: ce3d 16ec 1f03 2ef7 642f d5b0 fb0a eee4
00000080: d01c 04f8 ea74 ffee dceb f8f5 161f 7f01
00000090: af00 f2fc 01d1 b708 ec1a 0119 d92f d5e8
000000a0: 030a fab8 311f da05 0dcc 0ffc f1e7 eee0
000000b0: 1428 05fe 191d e5e4 0018 0a0e fa0d e92d
000000c0: ede4 0133 f9ca ffcd c71e 9928 2de9 3eeb
000000d0: efda 14e2 fdfa d5d6 fb48 ed3a dcff 5406
000000e0: dfaa ed28 f2de e7ea ed07 c0f3 0200 4219
000000f0: 07e6 f300 d2b4 ed02 dcfb cccb 2d0e e602
-34 2 51 34 31 14 -25 82
-64 76 -81 -64 30 4 16 43
-31 -6 -55 -67 -96 -15 65 -13
77 50 -69 -8 -54 -41 -79 -4
-9 -25 -98 -102 -15 21 86 15
-13 -56 27 1 -11 -63 -84 5
-2 1 78 -33 -11 -41 87 11
29 16 -37 60 -12 9 33 -47
32 -13 6 8 42 55 -4 13
20 83 56 -6 -48 -34 -90 -53
-48 -13 2 18 66 -51 -19 -20
40 -127 -19 24 52 -3 -53 104
-29 -7 63 -14 10 0 -17 -43
-73 10 83 -60 -32 -6 -6 -61
-50 61 22 -20 31 3 46 -9
100 47 -43 -80 -5 10 -18 -28
-48 28 4 -8 -22 116 -1 -18
-36 -21 -8 -11 22 31 127 1
-81 0 -14 -4 1 -47 -73 8
-20 26 1 25 -39 47 -43 -24
3 10 -6 -72 49 31 -38 5
13 -52 15 -4 -15 -25 -18 -32
20 40 5 -2 25 29 -27 -28
0 24 10 14 -6 13 -23 45
-19 -28 1 51 -7 -54 -1 -51
-57 30 -103 40 45 -23 62 -21
-17 -38 20 -30 -3 -6 -43 -42
-5 72 -19 58 -36 -1 84 6
-33 -86 -19 40 -14 -34 -25 -22
-19 7 -64 -13 2 0 66 25
7 -26 -13 0 -46 -76 -19 2
-36 -5 -52 -53 45 14 -26 2

MobilenetV1/Conv2d_12_depthwise/depthwise_weights/read i1 [1, 3, 3, 128]
00000000: 8187 5481 a4b4 81b3 b281 a87f 32e0 cd7f
00000010: cef8 a504 76f4 d927 e30b 9efb 3334 bef7
00000020: c70c d89b 7fd4 d5c2 f581 2dd5 db7f f0a0
00000030: 4481 8ea9 4447 e11f 819f 3141 7f7f 7f91
00000040: 0fc9 813f 7843 31db 8130 dd67 f931 0d42
00000050: faa3 aa2f 00f4 8187 7fd8 6e3f fd7f b678
00000060: b87f d1d6 7fde 8abb e929 cf81 49c6 a0ac
00000070: c5ab 3207 21d4 1805 b4ef 7f89 fc18 933e
00000080: c381 f100 aeb7 cade 8cfa e105 27c1 9638
00000090: c9fd 9d9f 40a4 235b 1ec9 b559 eb97 d51e
000000a0: 31df 3ea1 ded5 e781 4fdd 3ed1 d3bd 2981
000000b0: 6621 81a9 5e92 13fb afb6 ce81 4abc 6bb0
000000c0: e794 137f a22a 437f efdc 94e6 bb70 0801
000000d0: 3d20 e10f 81b0 2112 cab5 1072 014f 832e
000000e0: c158 c04c 6310 81b5 9b19 81ef 50ab bbef
000000f0: 3435 196d 7fea 5bc5 03fd 5ec4 0c7f 79fe
-127 -121 84 -127 -92 -76 -127 -77
-78 -127 -88 127 50 -32 -51 127
-50 -8 -91 4 118 -12 -39 39
-29 11 -98 -5 51 52 -66 -9
-57 12 -40 -101 127 -44 -43 -62
-11 -127 45 -43 -37 127 -16 -96
68 -127 -114 -87 68 71 -31 31
-127 -97 49 65 127 127 127 -111
15 -55 -127 63 120 67 49 -37
-127 48 -35 103 -7 49 13 66
-6 -93 -86 47 0 -12 -127 -121
127 -40 110 63 -3 127 -74 120
-72 127 -47 -42 127 -34 -118 -69
-23 41 -49 -127 73 -58 -96 -84
-59 -85 50 7 33 -44 24 5
-76 -17 127 -119 -4 24 -109 62
-61 -127 -15 0 -82 -73 -54 -34
-116 -6 -31 5 39 -63 -106 56
-55 -3 -99 -97 64 -92 35 91
30 -55 -75 89 -21 -105 -43 30
49 -33 62 -95 -34 -43 -25 -127
79 -35 62 -47 -45 -67 41 -127
102 33 -127 -87 94 -110 19 -5
-81 -74 -50 -127 74 -68 107 -80
-25 -108 19 127 -94 42 67 127
-17 -36 -108 -26 -69 112 8 1
61 32 -31 15 -127 -80 33 18
-54 -75 16 114 1 79 -125 46
-63 88 -64 76 99 16 -127 -75
-101 25 -127 -17 80 -85 -69 -17
52 53 25 109 127 -22 91 -59
3 -3 94 -60 12 127 121 -2

MobilenetV1/Conv2d_12_pointwise/weights/read i1 [256, 1, 1, 128]
00000000: 3bf3 0cf8 09ca 2eec f415 0f19 391f c6aa
00000010: 2642 ff2a f50e bdf8 63e2 5639 1bfa 20f5
00000020: f069 2807 4338 1449 fcd9 1cdc 0bfc b1d7
00000030: f705 0bcf 340e 03c1 2bee 3e19 dff7 ffdb
00000040: e80d 142e 1b2a e7fa 112d dfcd 220a d1ea
00000050: 32cf 06eb 0508 d1fb 2cfd 06f4 c9ff 3714
00000060: e337 fa78 70f8 f20e 0305 f114 2332 341d
00000070: 05ff 7ffe 6b62 b9bf b8df db35 e9c7 7624
00000080: 32da e408 ddec db27 bf1a 40df 10d7 1ddd
00000090: e852 6956 2bd8 17f1 2540 c129 df10 dc15
000000a0: 280f f7d3 f924 feb6 26a9 2a34 ee39 e8fd
000000b0: 0f25 da3e 29ee fcb3 f0bf 1b32 ccd5 db03
000000c0: f6f2 b0a4 d81a f9b5 220b c546 eed1 cee4
000000d0: 0122 02b7 031c 92f6 3e3d e56b acea ecff
000000e0: ac21 d760 5027 e0ca 1734 c4cc 7f09 2356
000000f0: d8e1 159a 1604 b7e3 f9c5 b1f2 02e0 b4f9
59 -13 12 -8 9 -54 46 -20
-12 21 15 25 57 31 -58 -86
38 66 -1 42 -11 14 -67 -8
99 -30 86 57 27 -6 32 -11
-16 105 40 7 67 56 20 73
-4 -39 28 -36 11 -4 -79 -41
-9 5 11 -49 52 14 3 -63
43 -18 62 25 -33 -9 -1 -37
-24 13 20 46 27 42 -25 -6
17 45 -33 -51 34 10 -47 -22
50 -49 6 -21 5 8 -47 -5
44 -3 6 -12 -55 -1 55 20
-29 55 -6 120 112 -8 -14 14
3 5 -15 20 35 50 52 29
5 -1 127 -2 107 98 -71 -65
-72 -33 -37 53 -23 -57 118 36
50 -38 -28 8 -35 -20 -37 39
-65 26 64 -33 16 -41 29 -35
-24 82 105 86 43 -40 23 -15
37 64 -63 41 -33 16 -36 21
40 15 -9 -45 -7 36 -2 -74
38 -87 42 52 -18 57 -24 -3
15 37 -38 62 41 -18 -4 -77
-16 -65 27 50 -52 -43 -37 3
-10 -14 -80 -92 -40 26 -7 -75
34 11 -59 70 -18 -47 -50 -28
1 34 2 -73 3 28 -110 -10
62 61 -27 107 -84 -22 -20 -1
-84 33 -41 96 80 39 -32 -54
23 52 -60 -52 127 9 35 86
-40 -31 21 -102 22 4 -73 -29
-7 -59 -79 -14 2 -32 -76 -7

MobilenetV1/Conv2d_13_depthwise/depthwise_weights/read i1 [1, 3, 3, 256]
00000000: 7fb2 1cea bbdd 8181 5100 813c d75d 7fe0
00000010: 2425 1bdb 1ee0 dd9b 258d f23b b321 b209
00000020: e5ef f017 7f12 f71d efed 7faa cef1 81de
00000030: 81f2 eae7 3f7f 0acf acc9 993b dc92 d1a5
00000040: baf3 cefc 1b7f 29b4 e5fc edba e981 e7e1
00000050: c171 0d51 fbc9 0beb 43e5 7f27 fbe9 7781
00000060: bf9c 6714 27cf dad3 2b81 c05d 7f7f e9b6
00000070: d133 4221 0430 7106 622d 9cf0 5ee7 f7e1
00000080: aabf 0ed2 c0b8 f407 81ed 89e7 e9b2 f3a2
00000090: 3df8 8181 394d 3c7f ba0b ef94 d27f 13e5
000000a0: 9c26 c581 2ff1 070c 7fed 67e4 ef6a 7fe6
000000b0: 0811 d49b 019e 0dd4 81dc efda 9b81 81c9
000000c0: 39b7 edbd 0a04 2fa8 7f1d e2c9 f588 0abf
000000d0: de37 fd9e dae5 fe0c 6330 37db a2be c234
000000e0: 3a06 39f6 0f27 28f9 ce08 c0df 981b de9e
000000f0: 0ba5 b9aa 2539 dec5 fd1f eb81 e3d4 b881
127 -78 28 -22 -69 -35 -127 -127
81 0 -127 60 -41 93 127 -32
36 37 27 -37 30 -32 -35 -101
37 -115 -14 59 -77 33 -78 9
-27 -17 -16 23 127 18 -9 29
-17 -19 127 -86 -50 -15 -127 -34
-127 -14 -22 -25 63 127 10 -49
-84 -55 -103 59 -36 -110 -47 -91
-70 -13 -50 -4 27 127 41 -76
-27 -4 -19 -70 -23 -127 -25 -31
-63 113 13 81 -5 -55 11 -21
67 -27 127 39 -5 -23 119 -127
-65 -100 103 20 39 -49 -38 -45
43 -127 -64 93 127 127 -23 -74
-47 51 66 33 4 48 113 6
98 45 -100 -16 94 -25 -9 -31
-86 -65 14 -46 -64 -72 -12 7
-127 -19 -119 -25 -23 -78 -13 -94
61 -8 -127 -127 57 77 60 127
-70 11 -17 -108 -46 127 19 -27
-100 38 -59 -127 47 -15 7 12
127 -19 103 -28 -17 106 127 -26
8 17 -44 -101 1 -98 13 -44
-127 -36 -17 -38 -101 -127 -127 -55
57 -73 -19 -67 10 4 47 -88
127 29 -30 -55 -11 -120 10 -65
-34 55 -3 -98 -38 -27 -2 12
99 48 55 -37 -94 -66 -62 52
58 6 57 -10 15 39 40 -7
-50 8 -64 -33 -104 27 -34 -98
11 -91 -71 -86 37 57 -34 -59
-3 31 -21 -127 -29 -44 -72 -127

MobilenetV1/Conv2d_13_pointwise/weights/read i1 [256, 1, 1, 256]
00000000: b552 d434 0108 19eb c3c2 b7f3 05f4 e707
00000010: 33e4 d913 ba23 31b5 2621 c398 020a 1f37
00000020: 0cc9 e0e9 f21b ed1f 00c4 02b3 03ef 359b
00000030: f005 ef07 1f1d 05e4 0dc6 fb90 eafc 271a
00000040: 4951 dc18 1ce0 38e9 e944 23c2 ee00 17f1
00000050: efe8 cdac c636 fe05 fa06 c5ba d7d3 af35
00000060: fc24 0af7 dde2 814e ff03 47f4 af9c 4fe4
00000070: dbd3 ec0c 9deb 0434 c1cc dee1 fdde 41d6
00000080: 1615 2453 fd06 17c3 e6f8 1e1e 33ea 32f7
00000090: b207 f5f2 14f3 d5d2 2533 f8f0 35be d1fd
000000a0: 0310 0ef1 c6d5 3d0e 0508 3cf0 23f9 f10c
000000b0: bff3 c6c1 c812 2061 24b4 1dd2 eceb ef09
000000c0: 1d57 faf6 f4fe 2ca6 0e21 1307 bd02 2fcc
000000d0: cf3f 03c4 fa00 ffc9 c4f6 d3ed 15ce 4b21
000000e0: 4dab e028 fda8 0e38 ce24 d92c e6ce f606
000000f0: fce1 2e77 f9bf f5af d80b 0a19 09f2 1d05
-75 82 -44 52 1 8 25 -21
-61 -62 -73 -13 5 -12 -25 7
51 -28 -39 19 -70 35 49 -75
38 33 -61 -104 2 10 31 55
12 -55 -32 -23 -14 27 -19 31
0 -60 2 -77 3 -17 53 -101
-16 5 -17 7 31 29 5 -28
13 -58 -5 -112 -22 -4 39 26
73 81 -36 24 28 -32 56 -23
-23 68 35 -62 -18 0 23 -15
-17 -24 -51 -84 -58 54 -2 5
-6 6 -59 -70 -41 -45 -81 53
-4 36 10 -9 -35 -30 -127 78
-1 3 71 -12 -81 -100 79 -28
-37 -45 -20 12 -99 -21 4 52
-63 -52 -34 -31 -3 -34 65 -42
22 21 36 83 -3 6 23 -61
-26 -8 30 30 51 -22 50 -9
-78 7 -11 -14 20 -13 -43 -46
37 51 -8 -16 53 -66 -47 -3
3 16 14 -15 -58 -43 61 14
5 8 60 -16 35 -7 -15 12
-65 -13 -58 -63 -56 18 32 97
36 -76 29 -46 -20 -21 -17 9
29 87 -6 -10 -12 -2 44 -90
14 33 19 7 -67 2 47 -52
-49 63 3 -60 -6 0 -1 -55
-60 -10 -45 -19 21 -50 75 33
77 -85 -32 40 -3 -88 14 56
-50 36 -39 44 -26 -50 -10 6
-4 -31 46 119 -7 -65 -11 -81
-40 11 10 25 9 -14 29 5

MobilenetV1/Conv2d_1_depthwise/depthwise_weights/read i1 [1, 3, 3, 8]
00000000: c0be cf0f 0109 3b03 d4a1 00da 0c22 0302
00000010: 1afb 8117 01cb 68fb 8196 23ce 0572 7ff8
00000020: ca82 b5b6 7f7f 4e84 b48f 937f faa3 537f
00000030: e781 9a16 eea0 4a03 cbd8 a2e9 891a 0c05
00000040: bffe af01 fef6 8efa
-64 -66 -49 15 1 9 59 3
-44 -95 0 -38 12 34 3 2
26 -5 -127 23 1 -53 104 -5
-127 -106 35 -50 5 114 127 -8
-54 -126 -75 -74 127 127 78 -124
-76 -113 -109 127 -6 -93 83 127
-25 -127 -102 22 -18 -96 74 3
-53 -40 -94 -23 -119 26 12 5
-65 -2 -81 1 -2 -10 -114 -6

MobilenetV1/Conv2d_1_pointwise/weights/read i1 [16, 1, 1, 8]
00000000: 7ff9 ee23 0a75 4106 16f0 f6ee 8115 0107
00000010: f6f9 0500 7f07 0ced 0203 0681 02d2 1906
00000020: 81fb 370b dfed 03df 0cf4 05fa fefa 0581
00000030: c6ed f47f edf7 3210 1b0c e47f 2315 0502
00000040: 0607 ff81 ff25 f4fc d8ef 1cf1 1e06 237f
00000050: 0c1a 0a7f f803 2f18 b611 9ce8 ebc2 cf81
00000060: 24f1 0d7f 0814 e714 3b46 fec8 04b9 1681
00000070: eefd f8d4 0aee 227f 0ef3 f3e9 0002 047f
127 -7 -18 35 10 117 65 6
22 -16 -10 -18 -127 21 1 7
-10 -7 5 0 127 7 12 -19
2 3 6 -127 2 -46 25 6
-127 -5 55 11 -33 -19 3 -33
12 -12 5 -6 -2 -6 5 -127
-58 -19 -12 127 -19 -9 50 16
27 12 -28 127 35 21 5 2
6 7 -1 -127 -1 37 -12 -4
-40 -17 28 -15 30 6 35 127
12 26 10 127 -8 3 47 24
-74 17 -100 -24 -21 -62 -49 -127
36 -15 13 127 8 20 -25 20
59 70 -2 -56 4 -71 22 -127
-18 -3 -8 -44 10 -18 34 127
14 -13 -13 -23 0 2 4 127

MobilenetV1/Conv2d_2_depthwise/depthwise_weights/read i1 [1, 3, 3, 16]
00000000: 4626 b57f bec0 4dde f3dc da22 e981 34b4
00000010: 7f76 cf2e 00ad 5671 5a8e 97e2 0603 51b0
00000020: 3542 fdd4 dfeb 213b 0dc8 b52a e4f6 2312
00000030: 4329 815d e69d 5b81 b9bf c454 81d7 5693
00000040: 477f 8ff4 a281 7fdb 7f81 8102 869d 7f81
00000050: 0746 fabc 81e2 2847 64c2 b006 d0e2 3109
00000060: 0910 bd04 edcd 1dd1 dfc9 f97f c03a 1db1
00000070: dd1c b4d5 b8bd 1c99 24ba d215 c43e 2c9f
00000080: f610 f201 a6f5 0edb 0bde 0b25 f326 1406
70 38 -75 127 -66 -64 77 -34
-13 -36 -38 34 -23 -127 52 -76
127 118 -49 46 0 -83 86 113
90 -114 -105 -30 6 3 81 -80
53 66 -3 -44 -33 -21 33 59
13 -56 -75 42 -28 -10 35 18
67 41 -127 93 -26 -99 91 -127
-71 -65 -60 84 -127 -41 86 -109
71 127 -113 -12 -94 -127 127 -37
127 -127 -127 2 -122 -99 127 -127
7 70 -6 -68 -127 -30 40 71
100 -62 -80 6 -48 -30 49 9
9 16 -67 4 -19 -51 29 -47
-33 -55 -7 127 -64 58 29 -79
-35 28 -76 -43 -72 -67 28 -103
36 -70 -46 21 -60 62 44 -97
-10 16 -14 1 -90 -11 14 -37
11 -34 11 37 -13 38 20 6

MobilenetV1/Conv2d_2_pointwise/weights/read i1 [32, 1, 1, 16]
00000000: e7fb 1de7 0331 dffa c1e7 5906 eef6 8116
00000010: 523f 11fd 04e0 7ffb 08ed b007 fb07 06f0
00000020: 4063 81f4 f84d bd1b 0f0b e5f8 e600 ff14
00000030: 05fa 0c7f 100b 0add d83b 1201 e000 e315
00000040: 877f 71ea fd20 4218 df49 5709 fc09 dd29
00000050: 3df2 d32e ff04 19cd 0120 05f4 8104 1e01
00000060: 16bd 81f9 fb20 e006 03ef 04f7 03fb 0603
00000070: 7f04 ec0a fe07 fa02 0901 f205 0c05 03fb
00000080: 10e2 81f2 f9b7 ef17 233e 17f7 fdf2 fe6d
00000090: 0438 d901 faa6 1405 370b f008 fafd 7ff5
000000a0: 7f25 eb01 feff dcf5 fd08 e813 07fc fdfb
000000b0: e2e7 c88c 08fc 7ffd a3ff f2fc b904 fe11
000000c0: 81ce 16e4 00ea 4717 fb03 f60a f5fc 0e01
000000d0: fb03 3c25 0719 c5fb ce81 e003 f007 6bc2
000000e0: bcde d10b fdd5 0204 3deb ecff 7fee 3be9
000000f0: eddb db7f 0204 8d58 6424 feeb 1adf e8f9
-25 -5 29 -25 3 49 -33 -6
-63 -25 89 6 -18 -10 -127 22
82 63 17 -3 4 -32 127 -5
8 -19 -80 7 -5 7 6 -16
64 99 -127 -12 -8 77 -67 27
15 11 -27 -8 -26 0 -1 20
5 -6 12 127 16 11 10 -35
-40 59 18 1 -32 0 -29 21
-121 127 113 -22 -3 32 66 24
-33 73 87 9 -4 9 -35 41
61 -14 -45 46 -1 4 25 -51
1 32 5 -12 -127 4 30 1
22 -67 -127 -7 -5 32 -32 6
3 -17 4 -9 3 -5 6 3
127 4 -20 10 -2 7 -6 2
9 1 -14 5 12 5 3 -5
16 -30 -127 -14 -7 -73 -17 23
35 62 23 -9 -3 -14 -2 109
4 56 -39 1 -6 -90 20 5
55 11 -16 8 -6 -3 127 -11
127 37 -21 1 -2 -1 -36 -11
-3 8 -24 19 7 -4 -3 -5
-30 -25 -56 -116 8 -4 127 -3
-93 -1 -14 -4 -71 4 -2 17
-127 -50 22 -28 0 -22 71 23
-5 3 -10 10 -11 -4 14 1
-5 3 60 37 7 25 -59 -5
-50 -127 -32 3 -16 7 107 -62
-68 -34 -47 11 -3 -43 2 4
61 -21 -20 -1 127 -18 59 -23
-19 -37 -37 127 2 4 -115 88
100 36 -2 -21 26 -33 -24 -7

MobilenetV1/Conv2d_3_depthwise/depthwise_weights/read i1 [1, 3, 3, 32]
00000000: 30d4 1081 1ee0 f70f 560f fe05 e6ae e524
00000010: 07c4 8481 e5f0 f9a4 045e d50a 28f7 f3c6
00000020: 39d4 7fa6 b36a 2d82 6902 bc78 ecbe c2f3
00000030: 697d a7dc 31ff d181 b986 da01 3e81 0e81
00000040: 091c e12c 0d21 f0ab 7fee aa98 0eed 12f7
00000050: de03 fd20 cad7 85b3 1b13 1af1 01f8 efc2
00000060: 0f17 d7c2 81fb 26cd 687f 4ffd afde b97f
00000070: 7f3c aaa2 7f7f 95fa 456b 7fd2 47a9 edd3
00000080: 817f 5785 8781 7f7f 3e4b df81 8681 7f8b
00000090: d581 81a1 7546 81a1 c481 237f 7f9c 7fb5
000000a0: 4aee 7bbb 3dd1 fc5f f6e6 d46e f3d6 19fe
000000b0: bafe fe0c dcc5 89e3 5d0c e1f8 16f0 e0f4
000000c0: ff12 ac0a 4f07 f9e9 07d8 7ff8 7ffb 1c32
000000d0: 14ff fca9 d7fe 2f0f f619 02e1 000e f918
000000e0: abcb 5bbd 5aff 0f44 3cf0 5706 78f7 06db
000000f0: ae04 dbab fa0e db3f 8104 e50a 14d4 eab3
48 -44 16 -127 30 -32 -9 15
86 15 -2 5 -26 -82 -27 36
7 -60 -124 -127 -27 -16 -7 -92
4 94 -43 10 40 -9 -13 -58
57 -44 127 -90 -77 106 45 -126
105 2 -68 120 -20 -66 -62 -13
105 125 -89 -36 49 -1 -47 -127
-71 -122 -38 1 62 -127 14 -127
9 28 -31 44 13 33 -16 -85
127 -18 -86 -104 14 -19 18 -9
-34 3 -3 32 -54 -41 -123 -77
27 19 26 -15 1 -8 -17 -62
15 23 -41 -62 -127 -5 38 -51
104 127 79 -3 -81 -34 -71 127
127 60 -86 -94 127 127 -107 -6
69 107 127 -46 71 -87 -19 -45
-127 127 87 -123 -121 -127 127 127
62 75 -33 -127 -122 -127 127 -117
-43 -127 -127 -95 117 70 -127 -95
-60 -127 35 127 127 -100 127 -75
74 -18 123 -69 61 -47 -4 95
-10 -26 -44 110 -13 -42 25 -2
-70 -2 -2 12 -36 -59 -119 -29
93 12 -31 -8 22 -16 -32 -12
-1 18 -84 10 79 7 -7 -23
7 -40 127 -8 127 -5 28 50
20 -1 -4 -87 -41 -2 47 15
-10 25 2 -31 0 14 -7 24
-85 -53 91 -67 90 -1 15 68
60 -16 87 6 120 -9 6 -37
-82 4 -37 -85 -6 14 -37 63
-127 4 -27 10 20 -44 -22 -77

MobilenetV1/Conv2d_3_pointwise/weights/read i1 [32, 1, 1, 32]
00000000: d37f 10d3 52fd 55a0 e0ec d824 182f 562c
00000010: 3f1a ffe9 02f4 1517 0b13 0f08 b8e5 1bf0
00000020: fdf5 f905 ebfe 810a 0e04 1afe c4ff fe06
00000030: f6f2 f8fd 1008 ff06 f502 fbff 0008 f9fd
00000040: b0fc ff0b fa2a d781 1028 b5fc 0fd6 fbda
00000050: 060b ec16 193c ef02 e6f3 6410 1202 ff0f
00000060: 0610 08f2 fa00 06fc ecfc ff7f 02ff 15f6
00000070: f67f 0ef8 0204 1208 f8f0 07f4 faf9 f00b
00000080: 2a39 3713 d6e9 fc97 faaf 3df4 323f 52df
00000090: feec 5504 ec18 f5c3 fd06 13eb 202f 7f09
000000a0: eaf7 dbf9 d92b 74aa 0eda f616 18f5 ee08
000000b0: abf1 ec31 2129 5281 b9f7 65e0 ffe2 cef3
000000c0: f1d9 6c11 d1f7 ef3f c716 5417 ecee c108
000000d0: ea2f e12e 1c2c de15 040e d9f3 d581 ffd0
000000e0: dfd5 7fda 0205 f1fe 1247 0809 d4d2 023e
000000f0: 4afe f6df 1007 d9bc 3516 130d 2d61 4be4
-45 127 16 -45 82 -3 85 -96
-32 -20 -40 36 24 47 86 44
63 26 -1 -23 2 -12 21 23
11 19 15 8 -72 -27 27 -16
-3 -11 -7 5 -21 -2 -127 10
14 4 26 -2 -60 -1 -2 6
-10 -14 -8 -3 16 8 -1 6
-11 2 -5 -1 0 8 -7 -3
-80 -4 -1 11 -6 42 -41 -127
16 40 -75 -4 15 -42 -5 -38
6 11 -20 22 25 60 -17 2
-26 -13 100 16 18 2 -1 15
6 16 8 -14 -6 0 6 -4
-20 -4 -1 127 2 -1 21 -10
-10 127 14 -8 2 4 18 8
-8 -16 7 -12 -6 -7 -16 11
42 57 55 19 -42 -23 -4 -105
-6 -81 61 -12 50 63 82 -33
-2 -20 85 4 -20 24 -11 -61
-3 6 19 -21 32 47 127 9
-22 -9 -37 -7 -39 43 116 -86
14 -38 -10 22 24 -11 -18 8
-85 -15 -20 49 33 41 82 -127
-71 -9 101 -32 -1 -30 -50 -13
-15 -39 108 17 -47 -9 -17 63
-57 22 84 23 -20 -18 -63 8
-22 47 -31 46 28 44 -34 21
4 14 -39 -13 -43 -127 -1 -48
-33 -43 127 -38 2 5 -15 -2
18 71 8 9 -44 -46 2 62
74 -2 -10 -33 16 7 -39 -68
53 22 19 13 45 97 75 -28

MobilenetV1/Conv2d_4_depthwise/depthwise_weights/read i1 [1, 3, 3, 32]
00000000: c43f cfdc 3c47 bc4b b6ae 2652 ab45 5ae5
00000010: 7f15 30d3 aa3b 5d41 3632 382c d8eb 2eeb
00000020: b773 b1cb 4af8 8158 bf81 461a a277 581e
00000030: 677f 4281 8d37 615f 3c52 4953 aac8 49a4
00000040: ee2f caf1 1b81 b93a 01d5 2b81 da43 2724
00000050: 055d 25ce bcf8 2629 1128 152e d7e3 27d4
00000060: af58 b1a5 442c adc7 95a6 576d 812a 665c
00000070: 3605 5650 a77f 604a 5f47 5449 a5ae 42c6
00000080: 817f 8181 7f90 e1c3 819a 7f2b 9c7f 7f7f
00000090: 276f 7f02 817c 7f7f 7f7f 7f7f 8181 7f81
000000a0: ca34 bada 4285 00c8 d6e5 3d82 f357 343b
000000b0: 134f 37bf bff6 3041 3744 3141 d2c6 42ad
000000c0: e132 e6d0 13fc e4a8 dec3 292f c8f9 175a
000000d0: e4f5 3040 c94e 2112 361f 1b25 c5b1 21d8
000000e0: b725 bdbf 37a0 3888 abe4 4414 ee15 366f
000000f0: ce02 3750 d554 3d32 4d36 3737 b8a1 46b6
-60 63 -49 -36 60 71 -68 75
-74 -82 38 82 -85 69 90 -27
127 21 48 -45 -86 59 93 65
54 50 56 44 -40 -21 46 -21
-73 115 -79 -53 74 -8 -127 88
-65 -127 70 26 -94 119 88 30
103 127 66 -127 -115 55 97 95
60 82 73 83 -86 -56 73 -92
-18 47 -54 -15 27 -127 -71 58
1 -43 43 -127 -38 67 39 36
5 93 37 -50 -68 -8 38 41
17 40 21 46 -41 -29 39 -44
-81 88 -79 -91 68 44 -83 -57
-107 -90 87 109 -127 42 102 92
54 5 86 80 -89 127 96 74
95 71 84 73 -91 -82 66 -58
-127 127 -127 -127 127 -112 -31 -61
-127 -102 127 43 -100 127 127 127
39 111 127 2 -127 124 127 127
127 127 127 127 -127 -127 127 -127
-54 52 -70 -38 66 -123 0 -56
-42 -27 61 -126 -13 87 52 59
19 79 55 -65 -65 -10 48 65
55 68 49 65 -46 -58 66 -83
-31 50 -26 -48 19 -4 -28 -88
-34 -61 41 47 -56 -7 23 90
-28 -11 48 64 -55 78 33 18
54 31 27 37 -59 -79 33 -40
-73 37 -67 -65 55 -96 56 -120
-85 -28 68 20 -18 21 54 111
-50 2 55 80 -43 84 61 50
77 54 55 55 -72 -95 70 -74

MobilenetV1/Conv2d_4_pointwise/weights/read i1 [64, 1, 1, 32]
00000000: 7fe5 e3d3 eee4 e109 25ea 1a1b f538 e8c6
00000010: fb0a 7722 00f3 06f3 e3a1 02d6 0708 ecef
00000020: 3545 4301 e87f 2d05 d7d3 fd3b e5c6 31f5
00000030: eabd d7eb f505 460c ee0d 2dfd a8db ff25
00000040: 3911 4d12 4463 e058 1330 81f1 d73d fb2c
00000050: 2a07 ff34 9346 db52 68ec e127 0f17 9551
00000060: d9a4 8117 5114 3bce 40e3 e0ef d273 ecaa
00000070: cdcb d90a b5c6 0508 a7d8 ecb4 eef5 f5e0
00000080: f1e3 06f3 de10 01e9 f8fc 12ca fbf9 e6f8
00000090: 2f1d 0afe 13e6 8bd9 d5ef 0fd6 0d29 7f1a
000000a0: 142d 0cf0 ec23 d703 f222 cc28 f150 b220
000000b0: ffd8 d1f4 704b d9ef 8118 813d d70b 3eaa
000000c0: f3f8 e8e9 360e 00ee f82e eae5 0407 d928
000000d0: 7fe9 300f 3716 ed08 dccb 0815 dd08 0f04
000000e0: 3a0a 9fee 0d00 3118 7fb4 0ef7 f265 d328
000000f0: 065d 5525 9cff 9812 10da e3ce 25cc be47
127 -27 -29 -45 -18 -28 -31 9
37 -22 26 27 -11 56 -24 -58
-5 10 119 34 0 -13 6 -13
-29 -95 2 -42 7 8 -20 -17
53 69 67 1 -24 127 45 5
-41 -45 -3 59 -27 -58 49 -11
-22 -67 -41 -21 -11 5 70 12
-18 13 45 -3 -88 -37 -1 37
57 17 77 18 68 99 -32 88
19 48 -127 -15 -41 61 -5 44
42 7 -1 52 -109 70 -37 82
104 -20 -31 39 15 23 -107 81
-39 -92 -127 23 81 20 59 -50
64 -29 -32 -17 -46 115 -20 -86
-51 -53 -39 10 -75 -58 5 8
-89 -40 -20 -76 -18 -11 -11 -32
-15 -29 6 -13 -34 16 1 -23
-8 -4 18 -54 -5 -7 -26 -8
47 29 10 -2 19 -26 -117 -39
-43 -17 15 -42 13 41 127 26
20 45 12 -16 -20 35 -41 3
-14 34 -52 40 -15 80 -78 32
-1 -40 -47 -12 112 75 -39 -17
-127 24 -127 61 -41 11 62 -86
-13 -8 -24 -23 54 14 0 -18
-8 46 -22 -27 4 7 -39 40
127 -23 48 15 55 22 -19 8
-36 -53 8 21 -35 8 15 4
58 10 -97 -18 13 0 49 24
127 -76 14 -9 -14 101 -45 40
6 93 85 37 -100 -1 -104 18
16 -38 -29 -50 37 -52 -66 71

MobilenetV1/Conv2d_5_depthwise/depthwise_weights/read i1 [1, 3, 3, 64]
00000000: 7f96 1ae7 f2cb 0a7b 33d4 b57d 49bd 38f1
00000010: 5a20 bfca 33d0 c213 1cce 990b 64e1 e6a0
00000020: 3ac9 3532 0b4d f0cc 42dd c6d1 02b8 ad81
00000030: 420d e1b1 3aec a9e5 ffeb 3079 9b9e e663
00000040: f681 7f81 00ca 5a2f 4831 856c 46b4 b55f
00000050: 71cc c481 7f7f 8123 52bd 397f 2e38 bbc7
00000060: 3ae8 78bb d4fc 0312 7f08 2aee 5f5e 4b97
00000070: 0411 9081 7fe5 b5cd 7ff7 07f8 1397 3065
00000080: d3ff fcd6 f3df 81bc 45fe 40f6 38ea 36d2
00000090: cb00 e6f1 f306 eff1 04f1 0622 8ffd e936
000000a0: ae0b cc28 1aff f5e5 e1e5 2545 e33f efcf
000000b0: e793 07ed 19c9 eefd ed2e fce3 2a1a f223
000000c0: 61aa d42f 1e81 1e7f a081 817f 81e3 5b08
000000d0: 43b5 8fb5 55dc 203a 58ea 1622 5717 9bb4
000000e0: 4f9b 17bf a47f e806 0b2e 7fb4 3b3b 4ecd
000000f0: d257 fdaa be84 86c7 4695 7f7f 814f 3ba5
127 -106 26 -25 -14 -53 10 123
51 -44 -75 125 73 -67 56 -15
90 32 -65 -54 51 -48 -62 19
28 -50 -103 11 100 -31 -26 -96
58 -55 53 50 11 77 -16 -52
66 -35 -58 -47 2 -72 -83 -127
66 13 -31 -79 58 -20 -87 -27
-1 -21 48 121 -101 -98 -26 99
-10 -127 127 -127 0 -54 90 47
72 49 -123 108 70 -76 -75 95
113 -52 -60 -127 127 127 -127 35
82 -67 57 127 46 56 -69 -57
58 -24 120 -69 -44 -4 3 18
127 8 42 -18 95 94 75 -105
4 17 -112 -127 127 -27 -75 -51
127 -9 7 -8 19 -105 48 101
-45 -1 -4 -42 -13 -33 -127 -68
69 -2 64 -10 56 -22 54 -46
-53 0 -26 -15 -13 6 -17 -15
4 -15 6 34 -113 -3 -23 54
-82 11 -52 40 26 -1 -11 -27
-31 -27 37 69 -29 63 -17 -49
-25 -109 7 -19 25 -55 -18 -3
-19 46 -4 -29 42 26 -14 35
97 -86 -44 47 30 -127 30 127
-96 -127 -127 127 -127 -29 91 8
67 -75 -113 -75 85 -36 32 58
88 -22 22 34 87 23 -101 -76
79 -101 23 -65 -92 127 -24 6
11 46 127 -76 59 59 78 -51
-46 87 -3 -86 -66 -124 -122 -57
70 -107 127 127 -127 79 59 -91

MobilenetV1/Conv2d_5_pointwise/weights/read i1 [64, 1, 1, 64]
00000000: 81ec 09c3 b3ee 63ec 4119 06fa ce8d 341d
00000010: 32d3 55f4 f72b a918 d010 0749 1304 ba01
00000020: deef 7f14 01c4 6dea 3b40 15dd f9bc c9f2
00000030: dcdd 2b1a 03b0 0110 d4f4 ede1 cc08 0f3f
00000040: d97f bee9 a90d 2115 78cd de29 d696 cb39
00000050: a84b 18e9 60f8 dfb2 6f19 fd2d ebde fddd
00000060: eae5 22c8 0e27 f2e7 ccf9 399d eebb 6e1c
00000070: 5a08 8641 2cce 1ce0 c41a 5a0f fb90 48ff
00000080: 83eb f6dd ed07 e7bd f625 1e00 bdef 0b1d
00000090: b13e 1730 f901 1004 11f7 53e0 180d 1781
000000a0: 21fd 22ee 0902 1503 1bcc 40db 096c 31e3
000000b0: 0401 15ed f610 d7dc 1427 f025 1a03 071c
000000c0: 3708 8198 2ced c41a fbf5 62de be22 3532
000000d0: f12e f835 f67e c2fc bc9f d3ff 56fb 2028
000000e0: f4c4 94fd db1e c4cb f1bf e510 fc36 1ff3
000000f0: d7eb 392b c413 3af4 eedc 2c04 d2ef 3fb5
-127 -20 9 -61 -77 -18 99 -20
65 25 6 -6 -50 -115 52 29
50 -45 85 -12 -9 43 -87 24
-48 16 7 73 19 4 -70 1
-34 -17 127 20 1 -60 109 -22
59 64 21 -35 -7 -68 -55 -14
-36 -35 43 26 3 -80 1 16
-44 -12 -19 -31 -52 8 15 63
-39 127 -66 -23 -87 13 33 21
120 -51 -34 41 -42 -106 -53 57
-88 75 24 -23 96 -8 -33 -78
111 25 -3 45 -21 -34 -3 -35
-22 -27 34 -56 14 39 -14 -25
-52 -7 57 -99 -18 -69 110 28
90 8 -122 65 44 -50 28 -32
-60 26 90 15 -5 -112 72 -1
-125 -21 -10 -35 -19 7 -25 -67
-10 37 30 0 -67 -17 11 29
-79 62 23 48 -7 1 16 4
17 -9 83 -32 24 13 23 -127
33 -3 34 -18 9 2 21 3
27 -52 64 -37 9 108 49 -29
4 1 21 -19 -10 16 -41 -36
20 39 -16 37 26 3 7 28
55 8 -127 -104 44 -19 -60 26
-5 -11 98 -34 -66 34 53 50
-15 46 -8 53 -10 126 -62 -4
-68 -97 -45 -1 86 -5 32 40
-12 -60 -108 -3 -37 30 -60 -53
-15 -65 -27 16 -4 54 31 -13
-41 -21 57 43 -60 19 58 -12
-18 -36 44 4 -46 -17 63 -75

MobilenetV1/Conv2d_6_depthwise/depthwise_weights/read i1 [1, 3, 3, 64]
00000000: 1bc3 4f21 c4c0 63b6 c281 3140 d4a5 a8a0
00000010: 81ae 6f27 dc3f 41af 6747 459c e53a 9b43
00000020: 2a44 7364 c125 4859 68b5 417e e298 a5a1
00000030: a626 ab18 444f 9b4a d75d 7f5e a6c8 d47f
00000040: 1db1 603d a19b 7f5f ba28 fb6b c081 a081
00000050: 07ae 7f03 c251 5fad 7f64 5687 8546 8b6d
00000060: 417f 7f7f 8142 4065 7a81 587f 9681 84ab
00000070: d843 9336 6553 816e b57e f67f b181 e874
00000080: 08c4 272f dbc4 2d55 e842 9640 e6b1 e7c3
00000090: 5aec 43df f02c 2be6 2a1d 15d7 9a0d e238
000000a0: 174d 2f27 b325 db2c 35a5 3430 babe badd
000000b0: 2611 c71b 3f1a b63e dd34 b530 feb9 2200
000000c0: 67d0 484f 9bb1 5c81 9986 5e4d 9f9e 8e20
000000d0: 8bbf 7bb0 aa68 61a4 3353 6396 9a7d a155
000000e0: 623c 3221 1e32 3476 7fa3 5d6d ef9d a6a0
000000f0: 8654 9055 4b6f b858 ab50 5a51 9d18 4a48
27 -61 79 33 -60 -64 99 -74
-62 -127 49 64 -44 -91 -88 -96
-127 -82 111 39 -36 63 65 -81
103 71 69 -100 -27 58 -101 67
42 68 115 100 -63 37 72 89
104 -75 65 126 -30 -104 -91 -95
-90 38 -85 24 68 79 -101 74
-41 93 127 94 -90 -56 -44 127
29 -79 96 61 -95 -101 127 95
-70 40 -5 107 -64 -127 -96 -127
7 -82 127 3 -62 81 95 -83
127 100 86 -121 -123 70 -117 109
65 127 127 127 -127 66 64 101
122 -127 88 127 -106 -127 -124 -85
-40 67 -109 54 101 83 -127 110
-75 126 -10 127 -79 -127 -24 116
8 -60 39 47 -37 -60 45 85
-24 66 -106 64 -26 -79 -25 -61
90 -20 67 -33 -16 44 43 -26
42 29 21 -41 -102 13 -30 56
23 77 47 39 -77 37 -37 44
53 -91 52 48 -70 -66 -70 -35
38 17 -57 27 63 26 -74 62
-35 52 -75 48 -2 -71 34 0
103 -48 72 79 -101 -79 92 -127
-103 -122 94 77 -97 -98 -114 32
-117 -65 123 -80 -86 104 97 -92
51 83 99 -106 -102 125 -95 85
98 60 50 33 30 50 52 118
127 -93 93 109 -17 -99 -90 -96
-122 84 -112 85 75 111 -72 88
-85 80 90 81 -99 24 74 72

MobilenetV1/Conv2d_6_pointwise/weights/read i1 [128, 1, 1, 64]
00000000: cb25 fbc5 fc3a f700 1f21 2299 18ec 030d
00000010: e7da f781 1d04 da25 25ee 2ef9 eabd b108
00000020: 07eb c622 342c cc43 40f8 d327 e9e5 fbc6
00000030: 25ab 099d fd07 db59 f2de 1f1f 1326 019e
00000040: 44e9 01a0 fc1a d2c3 560e fcad f32b f118
00000050: c035 1244 9a2c 17d6 5921 fdf2 d106 1704
00000060: 7051 bf01 c7e5 0cfd 0506 fb30 30d1 7def
00000070: 0cdb fa91 df27 81fa 432e de13 ed56 eb18
00000080: dad9 050e f704 040c 0feb 2138 25ea 0718
00000090: ebf1 d5f1 0fe1 e9e8 0e58 02f7 f2fd ece3
000000a0: b714 f210 1cf2 d435 f9fd 7ff9 0d39 f7e2
000000b0: 00e7 f932 13bc dcc5 cbd6 07c6 111f 260e
000000c0: eb2a f802 fcda 162c c6eb 0706 2942 7f28
000000d0: f432 1e1d 69ca e5f3 0419 0b2a 0e2c 1ffb
000000e0: ee2e 1824 14e4 f109 e5f9 1ba8 0107 ec24
000000f0: 39d4 b839 06d6 02ea 35db 1b84 d011 12fc
-53 37 -5 -59 -4 58 -9 0
31 33 34 -103 24 -20 3 13
-25 -38 -9 -127 29 4 -38 37
37 -18 46 -7 -22 -67 -79 8
7 -21 -58 34 52 44 -52 67
64 -8 -45 39 -23 -27 -5 -58
37 -85 9 -99 -3 7 -37 89
-14 -34 31 31 19 38 1 -98
68 -23 1 -96 -4 26 -46 -61
86 14 -4 -83 -13 43 -15 24
-64 53 18 68 -102 44 23 -42
89 33 -3 -14 -47 6 23 4
112 81 -65 1 -57 -27 12 -3
5 6 -5 48 48 -47 125 -17
12 -37 -6 -111 -33 39 -127 -6
67 46 -34 19 -19 86 -21 24
-38 -39 5 14 -9 4 4 12
15 -21 33 56 37 -22 7 24
-21 -15 -43 -15 15 -31 -23 -24
14 88 2 -9 -14 -3 -20 -29
-73 20 -14 16 28 -14 -44 53
-7 -3 127 -7 13 57 -9 -30
0 -25 -7 50 19 -68 -36 -59
-53 -42 7 -58 17 31 38 14
-21 42 -8 2 -4 -38 22 44
-58 -21 7 6 41 66 127 40
-12 50 30 29 105 -54 -27 -13
4 25 11 42 14 44 31 -5
-18 46 24 36 20 -28 -15 9
-27 -7 27 -88 1 7 -20 36
57 -44 -72 57 6 -42 2 -22
53 -37 27 -124 -48 17 18 -4

MobilenetV1/Conv2d_7_depthwise/depthwise_weights/read i1 [1, 3, 3, 128]
00000000: ea1a 0b28 0be2 cb7f f36c 2f43 267f e5b9
00000010: bfdd ca0d bda7 81d0 ba08 1ed0 def7 fe03
00000020: d8b5 fcd2 d016 d23c 3a0b f481 26c0 e70e
00000030: 1a06 edea 81e4 86d9 dae1 07f3 f1dc fa06
00000040: c202 c0c9 06d4 22e9 1065 eed1 f419 8101
00000050: 01e8 0db0 d600 f509 e9ac 0547 fda9 d9e0
00000060: c2a0 d296 edc6 7fd5 005f 4cc7 c28f 23e8
00000070: d0a2 bfbb e981 0d19 e7eb a160 7f3c d302
00000080: b2c8 7f4a 19b8 81fb d1c7 227f 2be4 85c5
00000090: 7fa8 89e1 1384 8bf6 d7c7 7f97 b1e6 8189
000000a0: 7f1c 94d9 957f 247f 4d7f 5be0 b615 a707
000000b0: 2a44 ccfb b0b1 92dd cb49 9e46 bfe0 13d2
000000c0: bb81 66d7 1a04 b78f 3f74 3ae8 7f7f 7b35
000000d0: 0bd8 c77f 48b4 8154 9c2d 5d7f 238d e3ed
000000e0: c1de e57b 7f01 02a1 447f 748e 1f9b 7ff8
000000f0: 8185 0d9d be95 f57f 46c9 04c9 4a7f 70dc
-22 26 11 40 11 -30 -53 127
-13 108 47 67 38 127 -27 -71
-65 -35 -54 13 -67 -89 -127 -48
-70 8 30 -48 -34 -9 -2 3
-40 -75 -4 -46 -48 22 -46 60
58 11 -12 -127 38 -64 -25 14
26 6 -19 -22 -127 -28 -122 -39
-38 -31 7 -13 -15 -36 -6 6
-62 2 -64 -55 6 -44 34 -23
16 101 -18 -47 -12 25 -127 1
1 -24 13 -80 -42 0 -11 9
-23 -84 5 71 -3 -87 -39 -32
-62 -96 -46 -106 -19 -58 127 -43
0 95 76 -57 -62 -113 35 -24
-48 -94 -65 -69 -23 -127 13 25
-25 -21 -95 96 127 60 -45 2
-78 -56 127 74 25 -72 -127 -5
-47 -57 34 127 43 -28 -123 -59
127 -88 -119 -31 19 -124 -117 -10
-41 -57 127 -105 -79 -26 -127 -119
127 28 -108 -39 -107 127 36 127
77 127 91 -32 -74 21 -89 7
42 68 -52 -5 -80 -79 -110 -35
-53 73 -98 70 -65 -32 19 -46
-69 -127 102 -41 26 4 -73 -113
63 116 58 -24 127 127 123 53
11 -40 -57 127 72 -76 -127 84
-100 45 93 127 35 -115 -29 -19
-63 -34 -27 123 127 1 2 -95
68 127 116 -114 31 -101 127 -8
-127 -123 13 -99 -66 -107 -11 127
70 -55 4 -55 74 127 112 -36

MobilenetV1/Conv2d_7_pointwise/weights/read i1 [128, 1, 1, 128]
00000000: c37f 490a 190b 1047 1fde 2ffc 4932 f611
00000010: 98f2 e9ce cdfe d422 fbf7 e22b 43db eff2
00000020: debb 2e34 f222 2e03 a2b4 bc6b d93c 0acd
00000030: c4eb 12e5 c04a 19df 2d39 0bcc 9bb9 3d18
00000040: 20df 18f7 fffe fd52 f1ef f747 d5d5 f630
00000050: f6ee 3bff c90c d4d0 ffd0 be07 b73b fe0d
00000060: 1532 2bd6 cccc 4dd4 366d 34ed fbe3 c54f
00000070: 22ed f718 2d48 491b 1ac3 0820 a523 0f4d
00000080: 1435 bacd d9f3 0b2b 0b19 29d0 4c20 eb10
00000090: 30f9 3f0f dc03 00e1 e0f0 dbf5 f247 1ad6
000000a0: 57b0 d331 2b3c b7dc f3e9 f22f 0d22 4813
000000b0: e414 03e2 f74a dd0c 8109 c8b4 d30c 2908
000000c0: d6f8 1bf1 1cd8 d9e2 eeda 0ffe 0f20 ff24
000000d0: 04ea e618 c9ed 15e9 9a08 29d9 3c4c e7e2
000000e0: 3103 1cf6 300c 29dd 0abd 1dc0 e9f2 e502
000000f0: 2407 d612 d619 e816 cff1 0227 d8b0 3281
-61 127 73 10 25 11 16 71
31 -34 47 -4 73 50 -10 17
-104 -14 -23 -50 -51 -2 -44 34
-5 -9 -30 43 67 -37 -17 -14
-34 -69 46 52 -14 34 46 3
-94 -76 -68 107 -39 60 10 -51
-60 -21 18 -27 -64 74 25 -33
45 57 11 -52 -101 -71 61 24
32 -33 24 -9 -1 -2 -3 82
-15 -17 -9 71 -43 -43 -10 48
-10 -18 59 -1 -55 12 -44 -48
-1 -48 -66 7 -73 59 -2 13
21 50 43 -42 -52 -52 77 -44
54 109 52 -19 -5 -29 -59 79
34 -19 -9 24 45 72 73 27
26 -61 8 32 -91 35 15 77
20 53 -70 -51 -39 -13 11 43
11 25 41 -48 76 32 -21 16
48 -7 63 15 -36 3 0 -31
-32 -16 -37 -11 -14 71 26 -42
87 -80 -45 49 43 60 -73 -36
-13 -23 -14 47 13 34 72 19
-28 20 3 -30 -9 74 -35 12
-127 9 -56 -76 -45 12 41 8
-42 -8 27 -15 28 -40 -39 -30
-18 -38 15 -2 15 32 -1 36
4 -22 -26 24 -55 -19 21 -23
-102 8 41 -39 60 76 -25 -30
49 3 28 -10 48 12 41 -35
10 -67 29 -64 -23 -14 -27 2
36 7 -42 18 -42 25 -24 22
-49 -15 2 39 -40 -80 50 -127

MobilenetV1/Conv2d_8_depthwise/depthwise_weights/read i1 [1, 3, 3, 128]
00000000: 7ff8 cdd5 9b98 3bfe 7481 ff37 f481 fbeb
00000010: 8107 beb0 bdbf d5c9 e0a5 cfd8 2692 f77f
00000020: 7f06 1cdb 23b0 64d8 673d e62a 7ff2 b8bd
00000030: 08e0 2ce6 4252 d76b bcfa e035 9f3f 4ba5
00000040: d47f 990a e6d8 2081 2c07 bd30 b40c 077f
00000050: 0cf8 a581 f5e0 850d ee39 a281 c4f3 8132
00000060: aeef bdbe 7fbf ff4a c153 ceda 2b10 7feb
00000070: 0f4c bbbd f9bb 67d7 3321 f8ec cbf6 fde6
00000080: 2814 01fc cfb3 57f0 4dfa ee7f 0aae b5ca
00000090: b347 f97f d200 bfc2 ac32 3411 d5c5 301f
000000a0: e02c 54d1 7fc9 54a1 6e7b 7f7f 7681 0181
000000b0: 27f1 7fc7 655c 1bfb c848 096a bc7f 7fa4
000000c0: 1a6c 137f cecf 6fda 06c6 863e 8706 815b
000000d0: e814 aae3 09da b80c 1414 87c2 fb32 ade6
000000e0: dd06 295d 5e9b c91c c97f 98f9 7f7f 0ce2
000000f0: 51c3 2915 c498 7f12 1ef0 7f0e 817f f199
127 -8 -51 -43 -101 -104 59 -2
116 -127 -1 55 -12 -127 -5 -21
-127 7 -66 -80 -67 -65 -43 -55
-32 -91 -49 -40 38 -110 -9 127
127 6 28 -37 35 -80 100 -40
103 61 -26 42 127 -14 -72 -67
8 -32 44 -26 66 82 -41 107
-68 -6 -32 53 -97 63 75 -91
-44 127 -103 10 -26 -40 32 -127
44 7 -67 48 -76 12 7 127
12 -8 -91 -127 -11 -32 -123 13
-18 57 -94 -127 -60 -13 -127 50
-82 -17 -67 -66 127 -65 -1 74
-63 83 -50 -38 43 16 127 -21
15 76 -69 -67 -7 -69 103 -41
51 33 -8 -20 -53 -10 -3 -26
40 20 1 -4 -49 -77 87 -16
77 -6 -18 127 10 -82 -75 -54
-77 71 -7 127 -46 0 -65 -62
-84 50 52 17 -43 -59 48 31
-32 44 84 -47 127 -55 84 -95
110 123 127 127 118 -127 1 -127
39 -15 127 -57 101 92 27 -5
-56 72 9 106 -68 127 127 -92
26 108 19 127 -50 -49 111 -38
6 -58 -122 62 -121 6 -127 91
-24 20 -86 -29 9 -38 -72 12
20 20 -121 -62 -5 50 -83 -26
-35 6 41 93 94 -101 -55 28
-55 127 -104 -7 127 127 12 -30
81 -61 41 21 -60 -104 127 18
30 -16 127 14 -127 127 -15 -103

MobilenetV1/Conv2d_8_pointwise/weights/read i1 [128, 1, 1, 128]
00000000: fe45 0dcb b3e3 2bc3 aa09 fb16 19d7 0840
00000010: f6a6 26ff 134d ee16 0f46 ef07 1506 51d7
00000020: b10f e1eb eefe 91da ca13 e5c5 4eae fe1e
00000030: 5fd1 cbe3 f101 014c e538 d72f 2027 2956
00000040: 44f4 a92b 5016 e0a5 ce2f e9b2 38c6 4381
00000050: 1e1b 07d9 e5ff 2e26 272c e569 0cf5 ebfe
00000060: 1309 12d4 e60a ecd6 2fcb 13dc 2f13 37ed
00000070: afd7 f2f6 dc0a 1140 1815 dde8 edbb f9d8
00000080: d14d 2242 4250 b61c 3906 0000 3def c6fd
00000090: 04ce b845 83f3 c0ce 0a27 6608 e5e8 e93e
000000a0: 6616 5599 13fc 24ff 181d ceea f7d8 127f
000000b0: 3227 ea28 e0ff 19f3 3ddc c6ab ecd4 e724
000000c0: fa4d 56e0 21d7 34cf bbd8 01c3 0c2c be18
000000d0: fa20 eef7 640f ebfa 03ad 0015 2fe8 183c
000000e0: 07e2 a148 d5f2 e20d b4d9 1dbc c0ef e8f0
000000f0: ca18 e5f5 4e0c e856 e8d1 5dc0 e896 ccd2
-2 69 13 -53 -77 -29 43 -61
-86 9 -5 22 25 -41 8 64
-10 -90 38 -1 19 77 -18 22
15 70 -17 7 21 6 81 -41
-79 15 -31 -21 -18 -2 -111 -38
-54 19 -27 -59 78 -82 -2 30
95 -47 -53 -29 -15 1 1 76
-27 56 -41 47 32 39 41 86
68 -12 -87 43 80 22 -32 -91
-50 47 -23 -78 56 -58 67 -127
30 27 7 -39 -27 -1 46 38
39 44 -27 105 12 -11 -21 -2
19 9 18 -44 -26 10 -20 -42
47 -53 19 -36 47 19 55 -19
-81 -41 -14 -10 -36 10 17 64
24 21 -35 -24 -19 -69 -7 -40
-47 77 34 66 66 80 -74 28
57 6 0 0 61 -17 -58 -3
4 -50 -72 69 -125 -13 -64 -50
10 39 102 8 -27 -24 -23 62
102 22 85 -103 19 -4 36 -1
24 29 -50 -22 -9 -40 18 127
50 39 -22 40 -32 -1 25 -13
61 -36 -58 -85 -20 -44 -25 36
-6 77 86 -32 33 -41 52 -49
-69 -40 1 -61 12 44 -66 24
-6 32 -18 -9 100 15 -21 -6
3 -83 0 21 47 -24 24 60
7 -30 -95 72 -43 -14 -30 13
-76 -39 29 -68 -64 -17 -24 -16
-54 24 -27 -11 78 12 -24 86
-24 -47 93 -64 -24 -106 -52 -46

MobilenetV1/Conv2d_9_depthwise/depthwise_weights/read i1 [1, 3, 3, 128]
00000000: 3d07 2eb8 022c 9e06 81c4 223b 98ce bec7
00000010: d124 b9eb 6185 4312 25ca f4d7 20a8 816a
00000020: b562 952c a7b6 81be 6ec0 de2a 8111 203a
00000030: 4c9a 0890 587f 3a8e 49e7 1bfc 1cd7 81bb
00000040: 7fe3 4028 08a1 b3a7 c829 cb81 8181 7fb8
00000050: 8145 89c5 b361 b654 d796 f6a8 e13c 8881
00000060: ada0 1c08 8ffc 339e a389 81b0 0e0b fafd
00000070: 7f66 abde 7c81 aff8 a04e 1190 0af7 bca9
00000080: f6f3 7f26 0658 d6d4 b22f 5481 9dad 9e03
00000090: a3e0 d701 fe81 1519 7fbf 40ee f38a ca3a
000000a0: 04ea fb22 b899 f8a9 66da ac7f 101a 8181
000000b0: b73a 5a8a 633a a48d 6481 df04 7fea 9f81
000000c0: 5da4 7f46 3bc7 81e1 5b0c 9fb5 29b9 2107
000000d0: b97e dfee f970 827c bc81 ee9e 427f abb6
000000e0: c1df 6231 ce16 7f81 fb2a b988 eb7f 8581
000000f0: 147f a322 1cd9 b640 b361 037c 7fb9 ceba
61 7 46 -72 2 44 -98 6
-127 -60 34 59 -104 -50 -66 -57
-47 36 -71 -21 97 -123 67 18
37 -54 -12 -41 32 -88 -127 106
-75 98 -107 44 -89 -74 -127 -66
110 -64 -34 42 -127 17 32 58
76 -102 8 -112 88 127 58 -114
73 -25 27 -4 28 -41 -127 -69
127 -29 64 40 8 -95 -77 -89
-56 41 -53 -127 -127 -127 127 -72
-127 69 -119 -59 -77 97 -74 84
-41 -106 -10 -88 -31 60 -120 -127
-83 -96 28 8 -113 -4 51 -98
-93 -119 -127 -80 14 11 -6 -3
127 102 -85 -34 124 -127 -81 -8
-96 78 17 -112 10 -9 -68 -87
-10 -13 127 38 6 88 -42 -44
-78 47 84 -127 -99 -83 -98 3
-93 -32 -41 1 -2 -127 21 25
127 -65 64 -18 -13 -118 -54 58
4 -22 -5 34 -72 -103 -8 -87
102 -38 -84 127 16 26 -127 -127
-73 58 90 -118 99 58 -92 -115
100 -127 -33 4 127 -22 -97 -127
93 -92 127 70 59 -57 -127 -31
91 12 -97 -75 41 -71 33 7
-71 126 -33 -18 -7 112 -126 124
-68 -127 -18 -98 66 127 -85 -74
-63 -33 98 49 -50 22 127 -127
-5 42 -71 -120 -21 127 -123 -127
20 127 -93 34 28 -39 -74 64
-77 97 3 124 127 -71 -50 -70

MobilenetV1/Conv2d_9_pointwise/weights/read i1 [128, 1, 1, 128]
00000000: ea42 ff18 463b f301 0893 0f35 cbf8 2b0c
00000010: fc16 13c9 eef5 da0b cfeb 55dc 0205 1a06
00000020: e2bc 0123 f5c9 3b0e 0901 d4d6 ebed 4ae0
00000030: 35d6 d3e5 1de5 ee09 d712 921e 137f 56d6
00000040: 2a43 b5cd 2146 ede8 eff0 d724 bbf9 310e
00000050: f205 ceeb 1520 00f8 b315 bdeb b9ed eade
00000060: 2bcb 12dc 21fa e904 e4ec fbeb 9afb 1ae3
00000070: 1a21 40f5 6842 f1fd 1a27 e3e0 f9ec 300d
00000080: 07e0 e40c 9284 dddd d73e db11 261c 12af
00000090: 28bc 42e9 fbe6 e4d4 ce1e e659 f923 433a
000000a0: 3607 c3e8 0110 b2db 8115 d4c0 0426 e706
000000b0: dcdd 2edb eed5 0b12 ccc6 e703 fd31 a0e7
000000c0: 10f3 3a13 10e4 e500 dccb d5fd f8f1 c304
000000d0: 2705 0bd2 41e7 d087 d0fa 5cfc fd11 f0dd
000000e0: 012c e3ab eb1f ee42 2cc9 a623 26d8 dee2
000000f0: a4f2 f31b 8ae6 26d0 05e2 0c2b 0ded 020f
-22 66 -1 24 70 59 -13 1
8 -109 15 53 -53 -8 43 12
-4 22 19 -55 -18 -11 -38 11
-49 -21 85 -36 2 5 26 6
-30 -68 1 35 -11 -55 59 14
9 1 -44 -42 -21 -19 74 -32
53 -42 -45 -27 29 -27 -18 9
-41 18 -110 30 19 127 86 -42
42 67 -75 -51 33 70 -19 -24
-17 -16 -41 36 -69 -7 49 14
-14 5 -50 -21 21 32 0 -8
-77 21 -67 -21 -71 -19 -22 -34
43 -53 18 -36 33 -6 -23 4
-28 -20 -5 -21 -102 -5 26 -29
26 33 64 -11 104 66 -15 -3
26 39 -29 -32 -7 -20 48 13
7 -32 -28 12 -110 -124 -35 -35
-41 62 -37 17 38 28 18 -81
40 -68 66 -23 -5 -26 -28 -44
-50 30 -26 89 -7 35 67 58
54 7 -61 -24 1 16 -78 -37
-127 21 -44 -64 4 38 -25 6
-36 -35 46 -37 -18 -43 11 18
-52 -58 -25 3 -3 49 -96 -25
16 -13 58 19 16 -28 -27 0
-36 -53 -43 -3 -8 -15 -61 4
39 5 11 -46 65 -25 -48 -121
-48 -6 92 -4 -3 17 -16 -35
1 44 -29 -85 -21 31 -18 66
44 -55 -90 35 38 -40 -34 -30
-92 -14 -13 27 -118 -26 38 -48
5 -30 12 43 13 -19 2 15

MobilenetV1/Logits/Conv2d_1c_1x1/weights/read i1 [2, 1, 1, 256]
00000000: f03f d7dd dcd8 11bf d7d6 252f d2d6 cde6
00000010: defb dbcf d3c8 da34 e84c e2db d3e0 dfdf
00000020: 4ce0 f0e2 23d7 e0d8 e443 d1d3 dede d3ca
00000030: deca d7d6 e8d4 d503 27c1 dbe6 da29 22e2
00000040: d01e c9c0 b82c 02da d2d6 d724 d6c7 d9ec
00000050: e5fa d0ea c3c7 ea26 1027 0fa1 30db c6cf
00000060: e1d4 e256 dfe4 cce5 c7df 1a1e d33b cb12
00000070: e8dc 26db dad2 26de dbdc d0d5 d52a d7d7
00000080: cbd3 cfe7 e6e3 421b 1f15 deec bfda e2bc
00000090: d8de ddd1 4230 dbd8 eca1 e729 d8d9 1920
000000a0: d7e3 bc3b d11f dad1 d8e7 8144 29ee f5d7
000000b0: dfea f0d6 e2da 2fc9 36cb 1a35 d7da cfea
000000c0: e9d0 d5f0 dad3 e0d8 ca7b d4d5 bad8 c8d6
000000d0: dad3 d5e5 fce1 d9ac 57ce dddd 45d4 c7e4
000000e0: d8cc 3708 d7c9 edd9 c5d7 c1d7 d1cb d4d7
000000f0: 8ecf d4d9 5cd1 dbd8 cccd dfd9 42e7 25da
-16 63 -41 -35 -36 -40 17 -65
-41 -42 37 47 -46 -42 -51 -26
-34 -5 -37 -49 -45 -56 -38 52
-24 76 -30 -37 -45 -32 -33 -33
76 -32 -16 -30 35 -41 -32 -40
-28 67 -47 -45 -34 -34 -45 -54
-34 -54 -41 -42 -24 -44 -43 3
39 -63 -37 -26 -38 41 34 -30
-48 30 -55 -64 -72 44 2 -38
-46 -42 -41 36 -42 -57 -39 -20
-27 -6 -48 -22 -61 -57 -22 38
16 39 15 -95 48 -37 -58 -49
-31 -44 -30 86 -33 -28 -52 -27
-57 -33 26 30 -45 59 -53 18
-24 -36 38 -37 -38 -46 38 -34
-37 -36 -48 -43 -43 42 -41 -41
-53 -45 -49 -25 -26 -29 66 27
31 21 -34 -20 -65 -38 -30 -68
-40 -34 -35 -47 66 48 -37 -40
-20 -95 -25 41 -40 -39 25 32
-41 -29 -68 59 -47 31 -38 -47
-40 -25 -127 68 41 -18 -11 -41
-33 -22 -16 -42 -30 -38 47 -55
54 -53 26 53 -41 -38 -49 -22
-23 -48 -43 -16 -38 -45 -32 -40
-54 123 -44 -43 -70 -40 -56 -42
-38 -45 -43 -27 -4 -31 -39 -84
87 -50 -35 -35 69 -44 -57 -28
-40 -52 55 8 -41 -55 -19 -39
-59 -41 -63 -41 -47 -53 -44 -41
-114 -49 -44 -39 92 -47 -37 -40
-52 -51 -33 -39 66 -25 37 -38
